critic.pth (torch_old, 547873 bytes, 6 tensors)

linear1.weight f4 [400, 37]
000000 44 d3 6b 3e 89 15 6a 3e 95 13 3f bd 45 f9 87 3e
       0.2302981 0.22859778 -0.046649534 0.26557365
000010 7c 16 ff bd 3a 02 ab 3d 66 e9 91 be 31 bf 4f bd
       -0.124554604 0.08350034 -0.2849838 -0.050719444
000020 88 aa e8 bd a1 50 af 3c 0f fc 7f bc e5 37 ae 3b
       -0.11360651 0.021400752 -0.01562406 0.0053167217
000030 20 de fc 3b 3d 1f 4c bd c5 88 ef bc 42 b3 97 3d
       0.007716909 -0.04983448 -0.029240021 0.074072376
000040 b3 ca ce be 43 a4 01 3f 31 d5 a0 be c4 04 34 be
       -0.40389022 0.5064127 -0.31412652 -0.17579943
000050 c7 83 94 bc 14 46 e5 bc 47 e0 63 3c aa 98 0f bd
       -0.018129243 -0.027987517 0.013908452 -0.0350577
000060 d7 ab c1 3c a5 e9 09 3d 22 53 dd bd f5 75 1b 3d
       0.02364151 0.033670086 -0.10806872 0.03795429
000070 03 5f b6 3c d8 79 2a bd c8 53 82 be 29 73 11 3e
       0.022262102 -0.041620106 -0.25454545 0.14204086
000080 84 b5 a0 bf e4 4a 1c bd 5d af 7d 3c 63 cc 4c bd
       -1.2555394 -0.03815736 0.015483704 -0.049999606
000090 59 ca e7 3d 34 54 9e 3d 9f 87 66 3d 7a 96 3f bd
       0.11317892 0.07730904 0.056281682 -0.046774365
0000a0 8b 5f 0d bf 1e 45 06 bf ce 96 6d bd 8c 39 10 bf
       -0.5522391 -0.52449214 -0.058005147 -0.5633781
0000b0 f5 6f 35 bc 21 bd 40 3c 60 52 ab 3b eb 1b c8 3c
       -0.011074056 0.011763842 0.0052283257 0.024427375
0000c0 7c 09 c6 bb 7c b7 6a bd c1 34 0d 3d a6 d8 07 bc
       -0.006043611 -0.05730389 0.03447414 -0.008291399
0000d0 ea 22 c1 3c 31 5b 07 3e ad d8 63 3f 4a f5 ca bd
       0.023576219 0.1321838 0.89002496 -0.099100664
0000e0 2b cc c3 3d ce a6 2b bc 45 70 55 3d 5e b0 20 3c
       0.09560426 -0.010476781 0.05210902 0.009807674
0000f0 fc 18 94 3c 31 c3 be bb aa 1e d9 3c ba 97 e6 bc
       0.01807832 -0.0058216085 0.02650388 -0.02814852
000100 d2 66 b9 3d a0 d1 1f bd 60 af cd 3b 7a df 1a 3d
       0.090528145 -0.039018273 0.00627701 0.03781078
000110 c2 df d0 3d 55 4e 81 3e 6f 1c 68 bc 31 20 a8 bc
       0.101989284 0.25255075 -0.014166935 -0.020523163
000120 9c 46 58 3d ee ab 97 bd 79 c3 4b 3e 56 e3 a9 3e
       0.052801713 -0.0740584 0.19898786 0.33181256
000130 bd 74 64 bd 79 68 1a bd bf 5e c6 be 2a b8 af 3c
       -0.055775393 -0.03769729 -0.3874416 0.021450121
000140 d4 a7 d9 bc de 21 76 bd 5b 67 96 bd a0 70 88 be
       -0.026569284 -0.060090892 -0.07343932 -0.26648426
000150 92 7d 15 3e ea d3 c8 3d 53 8b e2 bb ba f7 6e be
       0.14598683 0.098060444 -0.0069135814 -0.23336688
000160 81 81 d3 bd 74 11 08 bd a1 4f 0d 3f e9 64 89 be
       -0.10327435 -0.03321977 0.5519963 -0.268348
000170 8d 36 84 3d 87 28 d2 3e 92 62 e4 3c 51 04 a6 3c
       0.06455717 0.41046545 0.027879033 0.02026573
000180 33 57 00 bc 9d a2 db bd 51 e6 9d bd fa b4 f0 ba
       -0.00783329 -0.107243754 -0.07709945 -0.0018364482
000190 9f 52 c1 3d 00 f6 ed 3e f4 c7 b0 bd a4 7a 29 bd
       0.09439587 0.46476746 -0.08631888 -0.041376725
0001a0 ed b6 02 bf 80 a7 41 bb 4c 67 6e be 81 49 04 3d
       -0.5106037 -0.00295493 -0.23281592 0.03229666
0001b0 3a eb 7e bd 0e c4 3b 3b 59 32 ea 3d b9 ab 86 3e
       -0.06223605 0.0028650793 0.11435384 0.2630289
0001c0 de f3 b5 3d 87 b3 00 3e cd ac f2 3c 1f ac db be
       0.088844046 0.12568484 0.029623413 -0.42904755
0001d0 bd 3d 9a bd 94 fb e9 bc c7 f4 24 bc e0 46 dd 3d
       -0.07531307 -0.028562345 -0.010068125 0.10804534
0001e0 ae bb 29 3c 97 ec c2 3c 9e 65 9f bb 52 44 8f 3b
       0.010359688 0.023794455 -0.0048644086 0.004372158
0001f0 e9 18 6a be db b3 cc bd 49 68 97 bd 9c 8a f3 3d
       -0.22861065 -0.09995242 -0.07392938 0.11891672
000200 24 42 1d be 7c 21 b1 be 63 47 2d bc 4b f3 b5 bc
       -0.15357262 -0.3459586 -0.010576102 -0.022210738
000210 13 2d 5e bc 52 19 5f bb 92 31 ad bd ed 6e a3 bb
       -0.013560551 -0.0034042192 -0.084567204 -0.0049875886
000220 4e d9 00 bd 0f 2a 18 3e a5 f2 dd 3e 93 77 51 bd
       -0.031457238 0.14859794 0.43349186 -0.051139425
000230 b7 76 1f 3e f3 76 97 be 1f d4 1f 3e 9b 3b 01 bf
       0.1557263 -0.2958294 0.15608262 -0.50481576
000240 c8 3a ad 3b f4 7a 8a bb 11 fc cb bd 0c e6 ce 3d
       0.0052865483 -0.004226083 -0.09960187 0.10102472
000250 64 3b ab bd 04 59 83 3e ca ce d8 bd 1f 4f f3 be
       -0.08360937 0.2565385 -0.10586317 -0.47521302
000260 80 f0 36 bd 78 23 25 bd 8f 3e 7c bd 75 bf ad bc
       -0.044662952 -0.04031703 -0.061583098 -0.021209458
000270 37 d0 49 3d 4a f1 18 be b3 19 8c bc 7b 95 b0 3b
       0.049270835 -0.14935794 -0.017102098 0.005388913
000280 89 10 b4 bb 3c 14 77 3d 43 e0 b8 bd e6 87 3c bd
       -0.005495135 0.06032203 -0.090271495 -0.04602804
000290 aa ea c2 3d 75 e7 47 3f 9b 1b 61 3d b0 47 41 bd
       0.09517415 0.7808755 0.054957967 -0.047187507
0002a0 50 f0 ef bb 60 f1 aa bb a1 01 4e bd ad de d4 bd
       -0.0073223487 -0.0052167624 -0.050294522 -0.103940345
0002b0 1d 12 ca bc 5d 66 d7 3c 9f eb 9d 3d f0 aa d7 3e
       -0.02466684 0.026293928 0.07710957 0.42122602
0002c0 61 a7 38 3e e2 4c 96 bd 72 37 3e be d7 09 08 be
       0.180326 -0.07338883 -0.18575838 -0.13285004
0002d0 b4 69 f7 bd e7 19 de bb 2f 2d 82 bd 7e cc b5 bd
       -0.12080708 -0.00677799 -0.06356274 -0.088768944
0002e0 ae 7a 6b bc 0e 84 93 3d 69 52 08 bc 72 81 4b bd
       -0.014372511 0.07202922 -0.008320429 -0.049683996
0002f0 a7 db 7d be 8f ca 2c 3f 3f 8e e0 3e 7f 7c f1 3e
       -0.24790822 0.6749658 0.43858525 0.47165295
000300 77 27 31 bd 7e 7d 6e 3d 91 3e 7d 3c 8e 54 d8 bb
       -0.043250527 0.058225147 0.0154568115 -0.0066018766
000310 5a fe 07 3d 72 ff 76 bc 03 55 99 bd 19 92 e3 3c
       0.033201553 -0.015075551 -0.07486918 0.027779626
000320 27 55 31 3d a2 f0 c6 bc 74 24 ba 3d 0e d4 43 be
       0.0432941 -0.024284665 0.09088984 -0.19123861
000330 b8 1b 83 3e 43 e9 12 3d cc 1d c5 bc 08 26 91 bd
       0.25607085 0.035866987 -0.02406206 -0.07087332
000340 7e 35 90 bd 85 6e 59 3c 12 6a f9 bc 7f 60 85 3d
       -0.07041453 0.013270979 -0.030446086 0.06512546
000350 14 17 26 3e 16 ee 21 bd 00 68 97 ba bd f8 f6 bd
       0.16219741 -0.039533697 -0.001155138 -0.12059162
000360 13 ae 03 be f6 b1 82 bf 71 f1 61 3d 4e bd e0 bc
       -0.12859373 -1.0210559 0.055161897 -0.027434018
000370 4c 80 46 3d b6 f8 02 3d 0c 67 65 bd a1 bf b0 bc
       0.048462197 0.03197547 -0.056006476 -0.02157575
000380 97 87 e7 bc cb cd ec bd 9a 82 fc 3d cc 44 6e be
       -0.028262896 -0.115626894 0.12329598 -0.23268431
000390 6c cb fe bd 35 f1 9a bd 02 b6 0b 3e 07 b9 d9 bd
       -0.124411434 -0.07565538 0.13643649 -0.10630994
0003a0 51 27 0a 3c 3a 25 e8 3c cb b1 08 bd 15 78 85 bd
       0.008432225 0.028338064 -0.03337268 -0.065170445
0003b0 39 a2 3e bd f8 0a 56 bc 6e 74 17 3d 6b c9 9e 3d
       -0.046541426 -0.013064139 0.03697627 0.07753261
0003c0 8b 4d 9c 3e 85 45 31 3f 87 22 5b bd c1 75 98 3d
       0.3052791 0.69246703 -0.053499725 0.07444335
0003d0 6d 8b c5 bc b0 2b 3a bd 4e 7d 8f 3b c6 87 ee 3d
       -0.024114335 -0.04545182 0.004378951 0.116469905
0003e0 7c ab 05 bd e1 27 9b 3e 8b b2 10 3e 90 00 b2 3c
       -0.032634243 0.30303863 0.14130609 0.021728784
0003f0 18 b9 47 be 74 d7 44 bd ec f7 a9 3d ef 90 12 bd
       -0.19504201 -0.048057035 0.082992405 -0.03578275

linear1.bias f4 [400]
000000 f4 53 98 be 88 0f 07 3e cc 0a d1 be 4b d9 da be
       -0.2975155 0.13189518 -0.4082855 -0.42743906
000010 a8 ba dd be a5 18 fb bd 39 e9 ca be f3 47 c4 be
       -0.4330647 -0.1226056 -0.3963106 -0.38336143
000020 55 06 14 3e a7 b0 85 3e b3 b1 ef be 83 66 d0 3c
       0.1445554 0.26111338 -0.4681526 0.025439506
000030 8d 28 82 bd df e8 81 3d 3b 89 7f 3c 3f b7 c7 be
       -0.06355391 0.06343245 0.015596683 -0.39006993
000040 5a f5 e4 be 39 ff c1 bd ce 49 97 bc 48 7a 1f 3e
       -0.44718438 -0.09472508 -0.01846781 0.1557399
000050 ab d3 7f be bf 00 ae be aa de 7e be c3 9a 0b be
       -0.24983089 -0.33984944 -0.24889627 -0.13633256
000060 5f 21 ef bd e9 94 51 bd d7 76 18 be c1 22 b7 be
       -0.11676287 -0.051167402 -0.14889084 -0.35768703
000070 26 2e 07 3d 70 ae 53 be d3 ed 4a be bd 1b 60 be
       0.033002995 -0.20672011 -0.19817285 -0.21885581
000080 23 22 b6 bd 37 3f b3 be 65 3b c0 bd cf b6 b3 bd
       -0.0889323 -0.35009167 -0.093863286 -0.08775102
000090 28 9b 49 be 67 72 5e be e5 5a 8e be e1 89 81 be
       -0.19688094 -0.21723329 -0.27803722 -0.25300506
0000a0 a3 02 4e bd 70 9f 26 bd ce a8 fb 3d e6 05 67 be
       -0.050295483 -0.040679395 0.12288056 -0.22560844
0000b0 51 09 97 be ce 36 2b be 7f f7 2c be 2f 04 bf be
       -0.29499295 -0.16720125 -0.16891287 -0.3730788
0000c0 62 06 81 be 4a ac 87 be 3e 2b f0 3d ff 62 67 be
       -0.25200182 -0.26498634 0.11726998 -0.22596358
0000d0 73 95 8c be f6 cb e4 3d ef a1 b0 bd af 78 31 be
       -0.2745777 0.11171715 -0.086246364 -0.17331193
0000e0 80 e2 53 3d 10 ed 73 be 6f 36 7d be b3 6c 82 be
       0.05172968 -0.23820901 -0.24727796 -0.25473556
0000f0 85 e7 af 3d 34 8a 95 be 23 e2 c5 be ba 46 40 3e
       0.08589081 -0.29207003 -0.3864909 0.1877698
000100 2c 15 22 be 27 da b6 be 97 09 6d be 5d 90 8c be
       -0.15828389 -0.35713312 -0.2314819 -0.2745389
000110 55 67 b9 be 08 30 13 be d1 12 22 be e2 e3 84 be
       -0.3621165 -0.14373791 -0.1582749 -0.2595511
000120 2e 1d 41 be c2 a3 94 be 2c 78 c2 bc ba e2 88 be
       -0.18858787 -0.29031187 -0.023738943 -0.2673548
000130 3b 00 c3 be 3f f8 96 be 92 4c 91 bd b9 ec 93 be
       -0.38086113 -0.29486272 -0.07094683 -0.28891543
000140 3f 2b d5 bd ff 69 84 be 8e 17 d3 3d d4 a4 aa bd
       -0.10408639 -0.2586212 0.10307227 -0.0833222
000150 d3 09 be be 55 64 c8 3d b7 cc 51 bd 72 43 1c 3d
       -0.3711687 0.09784762 -0.051220622 0.03815026
000160 cb 2a 12 be ae f5 3a 3e 95 05 7e be a7 d0 06 be
       -0.14274137 0.18257782 -0.24806817 -0.13165532
000170 83 72 90 be 63 5e e6 be 06 a0 1e be 01 bc 52 be
       -0.28212366 -0.44993886 -0.15490732 -0.2057953
000180 36 46 80 bc 5c d6 1d 3e c7 d5 41 be ea 30 f1 bc
       -0.01565848 0.15413803 -0.18929206 -0.02944227
000190 b3 b1 18 bc 91 fc aa be 7a 4e 85 be cf 94 3a be
       -0.009319711 -0.33395818 -0.26036435 -0.18220828
0001a0 f7 c7 21 3e ba a5 b3 bd cd 1e 53 be eb b1 9a be
       0.15798937 -0.08771844 -0.20617218 -0.30213866
0001b0 96 69 76 be 34 16 08 3e 78 22 7e be 01 1e da bd
       -0.24063715 0.1328972 -0.24817836 -0.10650254
0001c0 ae e5 4d be 15 68 28 be e9 17 69 be 32 89 e5 bd
       -0.20107147 -0.16445954 -0.22763027 -0.112078086
0001d0 58 cd 18 bc a4 58 a0 be 41 27 96 be e2 d8 98 be
       -0.0093263015 -0.31317627 -0.29326823 -0.29852968
0001e0 07 e1 96 be f6 eb 8c be 04 1d a2 be 08 54 50 bb
       -0.29468557 -0.27523774 -0.31662762 -0.0031788368
0001f0 26 21 bc 3e 18 b6 f5 bd 11 b3 67 be 82 79 3c 3e
       0.3674404 -0.11997622 -0.22626902 0.18405727
000200 da 6a d2 be ec 07 04 be 44 25 b7 be d9 ad ab be
       -0.41097146 -0.12893647 -0.3577062 -0.33531073
000210 15 1d 86 3e e6 a7 e2 be 63 47 75 be a8 25 f7 bb
       0.26194063 -0.4426872 -0.23953013 -0.007542331
000220 2b dc b0 be d5 01 30 bb 30 b0 9a 3e 5d 2d 29 be
       -0.34542975 -0.002685656 0.30212545 -0.16521211
000230 be 7c 93 be 7f b1 97 3d 99 2b 7e be 74 c2 8e be
       -0.28806108 0.074069016 -0.24821319 -0.2788273
000240 85 06 7e be 69 f6 19 3e b9 6e 63 be 86 64 b3 be
       -0.24807175 0.15035404 -0.22210206 -0.3503763
000250 3a 4a 2e be ea 07 fe bd c7 9b 88 be 73 e3 c1 bd
       -0.17020503 -0.12403853 -0.2668135 -0.094672106
000260 b0 c7 98 be fd b3 87 be 6f 30 88 bd a0 c3 3e be
       -0.2983985 -0.26504508 -0.06649863 -0.18629313
000270 45 a5 9a 3c 7c fb 75 be 8e 34 8b be 37 68 52 be
       0.018877635 -0.24021715 -0.27188534 -0.20547567
000280 36 b3 84 3e 62 35 b4 be 4d be 8a be 9a 34 b3 bd
       0.25917977 -0.35196978 -0.27098313 -0.08750267
000290 c7 b4 b8 be a6 dd dc bd 3d fc c9 be 34 6b a7 bd
       -0.36075422 -0.107844636 -0.39450255 -0.08174744
0002a0 26 2f 37 be 3e 3d 31 be 69 6f ed 39 d7 89 30 be
       -0.1788908 -0.17308518 0.0004528717 -0.17240082
0002b0 66 5d 7f bd 71 40 a2 bd c8 6c dd be 8e aa c8 3e
       -0.06234493 -0.079224475 -0.43247056 0.39192623
0002c0 ed 0f ef bd ff 74 77 3e 0e 1d ce be 0d 53 c1 bd
       -0.116729595 0.24165724 -0.40256542 -0.09439669
0002d0 be 96 05 bd 94 f4 a7 be 2f 0c d7 be e3 0d 98 be
       -0.032614462 -0.32803786 -0.42001483 -0.29698095
0002e0 40 2c 6c 3e 02 78 c3 be a6 cc 46 be d1 f3 99 be
       0.23063755 -0.38177496 -0.19414005 -0.3006883
0002f0 95 1c 4c be da 4c bf be f8 75 9e be 4e 5e d0 be
       -0.19932778 -0.3736332 -0.30949378 -0.4069695
000300 92 91 11 bd 51 d7 a3 be f6 26 2e be cc 4d 73 be
       -0.035539217 -0.3200021 -0.1700705 -0.23760146
000310 5a 7b b3 be e4 70 1e be 50 1d 42 3e 8d ba 07 3e
       -0.35055047 -0.15472752 0.18956494 0.13254757
000320 0f 33 f5 3d 46 9b 67 be 53 83 b4 3d 02 64 b3 be
       0.11972629 -0.22617826 0.088141106 -0.35037237
000330 ed 05 c0 be c8 41 04 bf 0d 4b ab be da f5 96 bd
       -0.3750452 -0.51662874 -0.33455697 -0.07371111
000340 14 90 b4 be 35 88 bb be 5b c6 77 be bd d0 62 be
       -0.35266173 -0.36627355 -0.2419676 -0.2214994
000350 db f8 4c be 24 5e 2b be 01 bb 81 3c 2e 24 88 be
       -0.20016806 -0.1673513 0.01583624 -0.26590103
000360 62 1d 83 be 8d 54 28 be 41 ed 07 3d 06 7b 57 3c
       -0.25608355 -0.16438504 0.033185247 0.01315189
000370 2b 75 9e 3c ee bc 17 be 81 ff 20 be 0c 98 c2 3d
       0.01934298 -0.14818165 -0.15722467 0.09501657
000380 df 4f ea bd 2d d9 70 be b7 85 43 be 9d af 9d 3e
       -0.114410155 -0.23520346 -0.19093977 0.30798045
000390 9f 0c 00 bf e6 24 47 3e d1 6c 1e 3d ba bd 5d 3e
       -0.5001926 0.1944767 0.038677994 0.21654406
0003a0 47 ca 9d be 01 27 44 3e 79 83 bb be 58 27 a2 bd
       -0.30818388 0.19155504 -0.36623743 -0.079176605
0003b0 39 54 42 be f5 a6 62 3d 8f 93 8c be a2 6d 94 3e
       -0.18977441 0.055335004 -0.27456328 0.28989893
0003c0 49 39 63 bd 78 c9 6e be 32 39 2f be ca 07 2e be
       -0.055474553 -0.23319042 -0.17111662 -0.16995159
0003d0 e2 d5 be be cb f4 11 be dd 5b 54 be 84 e3 9c bd
       -0.37272555 -0.14253537 -0.20738168 -0.07660583
0003e0 7b 69 9e bd f9 3f 90 be c9 54 86 be 74 2f 12 be
       -0.077349626 -0.28173807 -0.2623656 -0.14275914
0003f0 fc e0 9a 3e 38 07 80 bd ac 07 66 bd d8 db 8b 3e
       0.30249774 -0.06251377 -0.05615966 0.27316165

linear2.weight f4 [300, 400]
000000 62 54 55 3d 41 cc c5 bd ad 9f e0 bb b4 30 c3 bd
       0.052082427 -0.09658099 -0.0068549723 -0.09530774
000010 05 99 03 be 49 49 2f bd 5a 1a 54 ba e7 8c 2d 3d
       -0.12851341 -0.0427945 -0.0008091085 0.042370703
000020 7a db 4e bd 13 1a 82 bd b1 22 a8 3d 40 d8 a7 3c
       -0.050502278 -0.063526295 0.08209742 0.020488858
000030 b7 c9 34 3d 34 75 13 3e 08 63 8b 3c 76 16 e4 bc
       0.044137683 0.14400178 0.017014995 -0.027842741
000040 75 5b 03 be 95 0d 3e bd 80 06 a8 bc 3c b0 c5 bd
       -0.12827857 -0.04639967 -0.020510912 -0.09652755
000050 82 0e 11 bd dd 5c 84 3d f1 32 fc bd f2 d4 06 3d
       -0.035414226 0.06463025 -0.12314404 0.032917924
000060 bb 76 9e bd 63 e8 db bd 19 32 0a 3d d0 ea d7 3d
       -0.0773749 -0.107376836 0.033739183 0.10542834
000070 12 d5 9b bc 49 5c 17 be fd c7 03 3d 5b 29 2b bc
       -0.019022498 -0.14781298 0.032173146 -0.010446872
000080 bf fc 22 3d 13 82 07 bd 11 63 c3 bd 59 5d f7 3c
       0.03979182 -0.033083033 -0.0954038 0.030195879
000090 e7 bd 5c 3d 28 08 25 3d ba 20 36 be 6b 7e 6e bd
       0.053892042 0.04029098 -0.17785922 -0.05822603
0000a0 6a 05 61 3d 5a 32 5e 3d 2a 37 14 be 69 95 b2 3d
       0.054936804 0.054247238 -0.14474168 0.08719904
0000b0 6c b9 4c 3c 71 45 ab bd 28 84 93 bd 1d 56 93 bc
       0.01249538 -0.08362854 -0.07202941 -0.017985398
0000c0 56 26 d7 bd 6c 57 87 bd a2 1b 4b be 37 9e 18 3d
       -0.10505359 -0.06608471 -0.1983476 0.03726026
0000d0 b8 56 8a 3d 3d 05 bc 3a f7 bf 32 3d d7 70 7c 3d
       0.067548215 0.0014344823 0.043640103 0.06163105
0000e0 4f bf 31 3d 67 aa 4d bb 8e bc 03 be fe 66 a0 3c
       0.043395337 -0.0031382085 -0.12864897 0.01958036
0000f0 08 81 55 bb 81 1c cb 3b 57 57 2b be 6c a5 00 3d
       -0.003257813 0.0061984663 -0.16732536 0.03140776
000100 72 98 ea bb aa f1 22 bc b2 6e 9f bc 79 66 bd 3c
       -0.007159286 -0.0099453125 -0.019461963 0.023120152
000110 5d eb b1 bd 76 4b 85 bd e8 81 3f 3c 35 c9 83 bc
       -0.0868747 -0.06508534 0.011688687 -0.016087154
000120 ba f5 95 bb 06 30 0d 3d 2c 6f 8b 3c 9a 6c 82 bd
       -0.004576412 0.034469627 0.017020784 -0.0636837
000130 d3 da d2 bd b3 25 a1 bc eb 88 ad 3d b4 cc b7 3c
       -0.10295644 -0.019671297 0.08473381 0.022436477
000140 98 77 31 bc 3f 66 7f bd 0c c5 13 bd 95 df 01 3e
       -0.010831736 -0.06235337 -0.03607659 0.12682946
000150 bf c7 53 bd 07 5d ed bc 72 74 66 bd f1 fc 95 3d
       -0.051704165 -0.028975023 -0.056263395 0.07323635
000160 bd 72 a6 3d b2 e6 79 3d cc 2d 80 bd 75 40 f9 bc
       0.08127353 0.061011024 -0.06258735 -0.030426243
000170 ed a2 68 bd 88 0d 1b 3d b7 49 5d bc 03 45 8a bd
       -0.056796003 0.0378547 -0.0135063445 -0.06751444
000180 41 e9 52 be 09 58 36 3c 60 5f a7 3d dc be da bd
       -0.20596792 0.011129388 0.08172488 -0.10680935
000190 55 30 3d bc 9b 9b 22 be c5 be ab 3d 84 23 fe bd
       -0.011547168 -0.15879671 0.08385996 -0.12409118
0001a0 20 f9 8f bd c4 88 32 bd 3e 72 6f be 2d 43 a9 bd
       -0.07029939 -0.04358746 -0.23383424 -0.08264766
0001b0 9e 8c c7 3d 68 a3 aa bc 94 e3 0e bd e0 cb 41 be
       0.097436175 -0.020829871 -0.034885004 -0.18925428
0001c0 1b 2e b6 bd b0 c2 b5 bd c3 60 14 be c1 bc e1 3d
       -0.08895513 -0.08875024 -0.14490037 0.1102233
0001d0 30 60 78 bd 10 64 3b be fe 72 ab 3d d1 6a 23 3d
       -0.060638607 -0.1829989 0.083715424 0.03989679
0001e0 17 03 a5 bb 82 b1 c8 bb 27 92 ea bd 51 39 28 bd
       -0.0050357687 -0.006124676 -0.114536576 -0.041070286
0001f0 2f 6f 6a 3c e1 21 93 3d a4 b0 59 bc 26 b6 59 bd
       0.014308735 0.07184196 -0.013286743 -0.053152226
000200 b0 84 89 3d 22 a9 00 3e 84 19 37 3d 02 ed 01 bd
       0.06714761 0.12564519 0.044702068 -0.03172017
000210 3a 60 c8 bd e0 31 37 3d 31 18 f6 bd 55 bb 10 3d
       -0.09783979 0.0447253 -0.12016333 0.035334904
000220 aa 6a 1b be 72 ec 3a bd 6b ad 85 bd 45 bc 12 be
       -0.15177408 -0.045635648 -0.065272175 -0.14329632
000230 64 32 2d be 54 86 e8 3b ef cc 18 3d 4e 87 08 3c
       -0.16913754 0.0070960913 0.037304815 0.00833304
000240 10 3f b6 bd 3f c1 57 bc fb 8f 47 3d 18 f4 73 bc
       -0.08898747 -0.013168632 0.048721295 -0.014889739
000250 4b 29 a5 bc d6 c4 42 3d ff 16 62 bc 84 a4 d2 3d
       -0.020161292 0.047551 -0.013799428 0.10285285
000260 0d 8d a2 bd 12 a6 41 bd c6 e4 2d 3d f8 fd 1f be
       -0.079370596 -0.047277518 0.042454503 -0.15624225
000270 3b 22 5c 3d 91 b9 92 3c 2f 98 39 bd 0f f6 67 bd
       0.053743582 0.01791075 -0.04531115 -0.056631144
000280 02 9c 81 3d a5 ba 84 3d 9e 00 a3 3d 7a 65 0c be
       0.06328584 0.06480912 0.07959102 -0.13710585
000290 7f f6 13 bd 87 c2 14 bb 32 bc 65 3d 11 ac 1f bd
       -0.03612375 -0.0022698955 0.05608768 -0.038982455
0002a0 72 83 18 3d f4 2e 9d bd 19 af 04 be 28 34 b9 3b
       0.03723473 -0.07674971 -0.1295742 0.0056519695
0002b0 e3 35 71 3c 3e 12 52 bd c1 f8 05 3d 96 c1 cd bd
       0.01472232 -0.05128693 0.032707933 -0.10046689
0002c0 f8 7b a6 bd 93 f1 82 bc f6 88 ee bc 67 9b 68 3d
       -0.08129114 -0.015984332 -0.029118042 0.05678883
0002d0 99 0e aa 3d e4 84 e5 bb 08 8a 5b bd dc b9 b0 3c
       0.083035655 -0.007004367 -0.053598434 0.021573
0002e0 c5 04 4e bd e9 bb b9 3d 95 62 31 3d d2 2d 8f 3d
       -0.050297517 0.09069044 0.043306906 0.069911614
0002f0 e9 9c 99 3b 98 9c b2 3c d6 e3 b7 3d a4 fc 30 be
       0.0046878946 0.021803185 0.08979003 -0.17283875
000300 eb 56 2d be ab 4a 64 3d f7 34 b2 bd c4 e0 07 3d
       -0.16927688 0.05573527 -0.087015085 0.033173338
000310 79 e6 45 3d 3d 24 61 bd d6 42 a2 bc 6e ef 05 3d
       0.0483155 -0.0549662 -0.01980726 0.03269904
000320 02 63 79 bd 76 b4 70 bd 8d 50 9f bd 7f e3 56 bc
       -0.060885437 -0.05876585 -0.07779036 -0.013115763
000330 96 cf 0f 3b d6 33 28 bd 40 25 86 bd c1 f0 b6 bd
       0.00219438 -0.04106506 -0.065500736 -0.08932639
000340 b4 5e 76 bc cf 14 14 bd a4 27 c1 bd 89 f2 9b bd
       -0.015037227 -0.036152657 -0.09431389 -0.07614619
000350 70 73 a2 bd 18 65 80 3d 47 a0 c1 bc 1f b1 19 bd
       -0.07932174 0.06269282 -0.023635997 -0.03752243
000360 e1 5e d4 bd 02 e3 39 bd d3 c2 a7 bd 23 22 ef bc
       -0.10369659 -0.045382507 -0.08191457 -0.029191082
000370 74 36 9c bc 48 87 8e bd 7b 13 04 be 05 da c2 3c
       -0.019068934 -0.069593966 -0.12898056 0.0237856
000380 3e c9 af bb 4e 54 96 3d 9b 93 f3 bb 13 5c 27 3d
       -0.005364566 0.073402986 -0.0074333674 0.040859293
000390 94 b1 31 bd 95 6b 10 3c ac 13 96 bd 8f fc be bd
       -0.043382242 0.008814712 -0.07327971 -0.093255155
0003a0 d9 9e 10 bc f3 fe ca 3c b8 fe ba 3c 7c 97 ce bd
       -0.008826935 0.024779772 0.022826537 -0.10087487
0003b0 2b 8e 13 be 87 4d f3 bb 5b 7d 7e 3d 0f 4b 7a 3c
       -0.14409702 -0.0074250135 0.062131267 0.015276684
0003c0 b8 f8 b1 3d 75 7a 3f 3d 78 08 0c bd 82 79 5c be
       0.086900175 0.046747644 -0.034187764 -0.21530727
0003d0 df c0 92 3c c8 ff b0 bd 95 b3 b5 3c df 73 16 3d
       0.017914234 -0.086425364 0.022180358 0.036731597
0003e0 dd 4e 8f 3d 60 26 bd bd 92 13 f2 bb 37 8b 02 3b
       0.06997464 -0.09235835 -0.007387587 0.0019919404
0003f0 f8 a4 be 3b 87 d7 0c 3d 96 17 e4 3a cc 5e 8f bd
       0.0058180057 0.03438523 0.0017402049 -0.07000503

linear2.bias f4 [300]
000000 74 1c 7d bd 0e af 18 be 89 0a 60 bd 7a ec d7 3e
       -0.061794713 -0.14910528 -0.054697547 0.42172605
000010 a4 c0 98 bd 02 fb 48 be 3a 2a 9f 3e 64 67 1e be
       -0.07458618 -0.19627002 0.31086904 -0.15469128
000020 fb 1d 19 3d 71 ba 86 be 80 f4 56 3e 28 21 45 3e
       0.037382107 -0.26314119 0.20991707 0.1925093
000030 ca 6a 3e 3e 0a 37 47 be 7b 83 09 3c 9b f0 56 3e
       0.18595424 -0.1945459 0.008393164 0.20990221
000040 e6 95 b4 3e 8c cb 18 be 14 7c 28 be 09 5c b8 3e
       0.35270613 -0.14921397 -0.16453582 0.36007717
000050 3f db 25 be 2f 2b a6 3d 64 1c 90 3e a5 09 98 bd
       -0.16196917 0.08113705 0.2814666 -0.074237145
000060 0d d2 47 3e 8d c3 89 3e db 56 10 be 77 b3 34 3e
       0.19513722 0.26907006 -0.14095633 0.17646585
000070 d4 75 47 3e 70 43 e1 3d 84 04 95 3e df 0d 26 3e
       0.19478542 0.10999191 0.29105008 0.16216229
000080 e9 37 7e 3e cb 8d 63 3e f7 54 82 be 52 ec a1 3e
       0.24826016 0.22222058 -0.25455448 0.3162561
000090 82 75 0b be 79 94 3f be 58 f0 85 3e 5a 4a 66 3e
       -0.13619044 -0.18708982 0.2615993 0.224893
0000a0 43 c2 8b 3e 91 f1 e2 bd c2 30 68 bc 63 24 98 bd
       0.27296647 -0.110812314 -0.014171781 -0.07428815
0000b0 31 08 bd 3e 0a cc 87 3e 1f e5 97 3e 5d 3d b3 3e
       0.36920312 0.26522857 0.29666993 0.35007754
0000c0 6f 82 13 3e 16 9e a3 bd 9b cb 39 3e 83 59 50 3e
       0.14405225 -0.07989137 0.18144076 0.20346646
0000d0 e9 8e f1 3c 90 b3 7b bb e2 c9 4f bd 6b 65 81 3e
       0.02948709 -0.0038406588 -0.05072964 0.25272688
0000e0 58 77 08 be b4 37 53 3e 55 26 65 bd 85 46 1f 3e
       -0.13326776 0.20626718 -0.05594476 0.15554245
0000f0 10 9f 29 be 35 d3 f4 3e 8d bd 65 3e e3 85 c2 3e
       -0.16564584 0.47817388 0.22435589 0.37992772
000100 25 86 31 3e 77 b5 27 3e 92 4e e6 bd 22 49 a5 3e
       0.17336328 0.16377817 -0.11245455 0.32282358
000110 09 a4 6e be b8 c1 83 be c0 7f 2a be 85 2f 8e 3e
       -0.23304762 -0.25733733 -0.16650295 0.2777063
000120 c4 b7 66 be d2 27 79 3e 2c 57 bc bc b8 b8 06 be
       -0.22531039 0.24331596 -0.022990786 -0.13156402
000130 36 d3 2c be cb a4 aa 3e cf 54 2e be 8e 22 d9 bd
       -0.16877446 0.33328852 -0.1702454 -0.10602294
000140 82 ee 3c be c1 89 19 be b7 e9 56 3e 5b aa 11 3e
       -0.18450359 -0.14993955 0.20987593 0.14225142
000150 11 63 85 be 02 1e 07 3e 27 8e 0b 3f a2 a5 31 be
       -0.26052144 0.13195041 0.5451378 -0.1734834
000160 ec a9 6d 3e 88 23 88 3e 56 8a c0 bd 69 a3 c7 3d
       0.23209351 0.26589608 -0.094013855 0.09747965
000170 49 b7 6f 3e 45 0b b8 3e 01 e1 c9 bd ae 7a 90 3e
       0.23409761 0.35946098 -0.09857369 0.28218597
000180 fe 4a fe bd 29 b2 f0 3e 1a b2 44 be b5 8e a2 3e
       -0.124166474 0.47010925 -0.19208565 0.31749502
000190 d1 17 a4 be 16 71 07 3e cf b1 ae be df 8d 18 be
       -0.3204942 0.13226733 -0.34120032 -0.1489787
0001a0 2a c0 95 3e b4 31 49 3e 19 c0 02 3e 8d 2b 40 3e
       0.29248172 0.19647866 0.12768592 0.18766613
0001b0 c3 7f ac 3e 2f 2c 93 3e 32 f7 2d be 4b f3 9a 3e
       0.33691224 0.28744647 -0.16988829 0.30263743
0001c0 d6 d2 a9 3e d1 14 56 3e 58 d9 99 bc 7a e1 18 be
       0.33168668 0.20906378 -0.018780395 -0.14929762
0001d0 88 28 3e 3e 43 3a 2f be 9c 29 dc 3e 66 64 5b be
       0.18570149 -0.17112069 0.43000495 -0.21425018
0001e0 bf 3f 14 3e b8 6d d9 3e 1a c0 df 3b d3 17 1f bd
       0.14477442 0.4246652 0.00682832 -0.03884108
0001f0 5d d9 3a 3e 21 9e ae bd 1f cc 2b 3e 5e c2 cd 3e
       0.1824698 -0.085262544 0.16777085 0.40187353
000200 82 a4 be 3e 64 16 70 be a1 2d 04 be 89 cf 44 3e
       0.37234885 -0.23446041 -0.12908031 0.19219793
000210 c7 70 19 be ee e8 89 3e 5f 73 25 be 74 31 08 bd
       -0.14984427 0.26935524 -0.16157292 -0.033250287
000220 f0 0f de bd 37 c6 a0 be 09 1b 82 bd 93 c6 6e 3e
       -0.108428836 -0.31401226 -0.06352813 0.23317938
000230 54 18 42 3d 5a 7e 87 3e 80 f3 67 3e 46 64 4f be
       0.047386482 0.26463586 0.22651482 -0.20253095
000240 17 81 21 be 1b cc 81 3e 1b f1 52 3e bc 00 84 bd
       -0.157719 0.25351033 0.20599787 -0.064454526
000250 0e 06 d7 3d 4e 8a e9 bd b5 2f c2 3e 0e fa 38 be
       0.10499202 -0.11403333 0.37927023 -0.18064138
000260 35 74 04 be 75 56 1d bd d3 ba 32 3e ef f3 18 bd
       -0.12934954 -0.03841253 0.1745408 -0.03734201
000270 6d 4c e1 3e 33 18 3b bc 65 21 03 3e 8c ae ac 3e
       0.4400362 -0.011419344 0.12805708 0.3372692
000280 60 ff 4f be fa dd 4d 3e 0d a6 a9 3e 0e 86 b8 3e
       -0.20312262 0.20104209 0.331345 0.36039776
000290 ee 00 2c be c5 a1 ed 3e 20 4d a7 bd 29 c9 88 3e
       -0.1679723 0.46412483 -0.08169007 0.26715973
0002a0 b2 1d 1c 3e 70 18 3b 3e f8 10 49 3e 55 11 25 bd
       0.15245703 0.18271041 0.1963538 -0.040299732
0002b0 3b 64 5c 3e 83 08 99 be 75 fb 91 3e 40 a1 37 3e
       0.2152261 -0.29889306 0.2851216 0.17932606
0002c0 d7 b4 63 3e 52 2d a8 3e 85 96 3a be a5 73 65 3e
       0.22236954 0.32847077 -0.18221481 0.22407396
0002d0 5f 74 e6 3e 97 f1 43 bd 5b 94 03 3f aa 38 3f be
       0.4501066 -0.04783782 0.5139825 -0.1867396
0002e0 f8 d8 53 be 96 8b d4 bd e6 f0 b6 3e 2a 89 32 be
       -0.20688236 -0.103781864 0.35730666 -0.17435136
0002f0 c7 f9 48 3e 81 ac fb 3e 74 9e a0 3e 85 fb 44 be
       0.19626532 0.49155048 0.3137089 -0.19236572
000300 a3 e5 68 3e eb 61 83 3e 96 a5 27 3e c9 f6 45 3e
       0.2274385 0.25660643 0.1637176 0.19332422
000310 1e 7d 97 be 26 66 01 bd b9 9e a8 3e d7 14 3e bd
       -0.29587644 -0.031591557 0.32933596 -0.046406593
000320 92 f2 b2 3e 8d c9 91 be f1 5c fa bc ce 95 0e 3e
       0.3495069 -0.28474084 -0.030561896 0.13924333
000330 0a 39 8c be 0e c6 ad 3e 61 b0 96 be 90 58 92 bd
       -0.27387267 0.33940166 -0.2943144 -0.07145798
000340 fd 3c 23 3e e2 29 e9 bd eb 15 73 3e b8 bb ee 3e
       0.15941234 -0.11384942 0.2373883 0.46627593
000350 a4 9a 8e be 3a 1e 6b 3e d5 2f ad 3e 52 61 62 3e
       -0.27852356 0.2296075 0.33825555 0.22107437
000360 e0 e5 92 3e ea f9 e2 bd cf c9 9c 3e e9 da 23 3e
       0.28691006 -0.110828236 0.30622718 0.16001476
000370 4c de 6a 3e 3d d1 5e 3e 1a 32 3e 3e 07 8d 72 bd
       0.22936362 0.21759506 0.185738 -0.059216525
000380 41 05 94 3e d9 5f ec bd e0 9d 82 3e da c5 b7 3e
       0.28910258 -0.11541719 0.25511074 0.35893136
000390 a0 bf b2 3c 57 e3 75 3e 02 06 c3 3e c8 7a 7b 3e
       0.02181989 0.24012505 0.3809052 0.24558556
0003a0 91 6f 96 3e 9e 13 6c be c8 26 63 3e 27 44 5f 3e
       0.29381993 -0.23054358 0.22182763 0.21803342
0003b0 ba f4 ba 3e e1 9f b4 bd d5 9e 7f 3e 6f 0f 98 3e
       0.36514837 -0.08819557 0.24962933 0.29699275
0003c0 10 af 10 3a f2 62 82 be 71 80 3c 3e 4b 79 5f 3e
       0.00055192504 -0.25466114 0.18408372 0.21823613
0003d0 d4 e6 ee 3e e3 bf 44 3e b2 3e 94 bc d2 96 c0 3e
       0.46660483 0.19213824 -0.018096302 0.37615067
0003e0 f4 65 95 3e 26 84 bd bd 7a 7d 70 3e b8 b2 2b bd
       0.29179347 -0.09253721 0.23485366 -0.041918486
0003f0 96 03 44 3e 60 7e 8c 3e 85 cf a0 bd 3e 1f a5 3e
       0.19141993 0.27440166 -0.07852081 0.32250398

linear3.weight f4 [4, 300]
000000 42 66 83 be 33 4a 6e be 85 43 59 be cb 8f 79 3d
       -0.25663954 -0.23270492 -0.21217163 0.060928147
000010 ab a4 5b be e3 77 84 be af de 88 3d cd 7d 71 be
       -0.21449535 -0.25872716 0.066830985 -0.23583145
000020 eb 10 a8 3d 67 68 41 be 75 ae be 3d 47 a7 a7 3d
       0.08206352 -0.18887483 0.09310619 0.081862025
000030 a3 bf 62 3e 78 d1 2a be 9f b8 1c be 83 65 86 3d
       0.22143416 -0.16681468 -0.15304802 0.065623306
000040 78 11 ff 3c f4 84 16 be 69 f6 7f bd 0c 26 eb 3d
       0.03113626 -0.14699155 -0.062490854 0.11481866
000050 1e 9e b1 bd b8 01 1f 3e b8 4f d7 3d 8d c0 b6 be
       -0.086727366 0.15528 0.10513252 -0.3569378
000060 ad c3 a2 3d 54 2c ed 3d 05 ea 97 be f0 55 f4 3d
       0.079474784 0.115807205 -0.2967073 0.11930454
000070 0d 5f 54 3e 03 2c 26 3e 18 0f 88 3d 26 4d b4 3e
       0.20739384 0.16227727 0.06643504 0.3521511
000080 8c 41 29 3d ea 73 1b 3e 55 33 be bd 3b 6f d0 3d
       0.041322276 0.15180936 -0.092871346 0.101774655
000090 23 ac 54 be 84 1f e8 bd 55 8a 04 3e 57 bb 1d 3e
       -0.2076879 -0.11334136 0.12943394 0.15403496
0000a0 4d 41 b4 3d 9b cf 99 be 23 8a bc bb 2f 9b 9b be
       0.08801518 -0.30041203 -0.005753772 -0.30391833
0000b0 2d 96 3d 3d 7e 53 83 3d 9d e0 25 3e 9e b6 aa 3d
       0.046285797 0.06412409 0.16198964 0.08335613
0000c0 81 8c 26 3e f6 7e 2a be 3a 38 c3 3d bb 7d 03 3e
       0.16264535 -0.16649994 0.09532209 0.12840931
0000d0 6c 4d a8 be 88 89 15 3d b6 9c df bd 19 06 1f 3e
       -0.32871568 0.036508113 -0.10918562 0.1552967
0000e0 8a 44 54 be f6 19 63 3d 11 ae 40 be b2 81 03 3e
       -0.2072927 0.05544468 -0.18816401 0.12842444
0000f0 37 07 d4 bd b0 f4 44 3d d0 c7 87 3e 01 4c 64 3d
       -0.103529386 0.048084915 0.26519632 0.055736545
000100 68 d2 90 3d 89 05 b5 3d fe 6d bf be eb 16 82 3d
       0.07071382 0.08838946 -0.37388605 0.063520275
000110 7c d1 60 be 74 43 41 be 74 51 a1 be 64 be 08 3e
       -0.21954912 -0.18873388 -0.31507456 0.13353878
000120 60 c4 d4 be 14 3d e9 3d 16 68 11 3e f8 98 09 be
       -0.41556072 0.11388603 0.14199862 -0.13437259
000130 dc 78 05 be 2d d8 49 3d 48 1b f6 bd 68 03 ba bd
       -0.13034385 0.049278427 -0.12016922 -0.09082681
000140 49 1e 21 be 66 0b 5d be 3a 09 a7 3d aa cc 8c 3e
       -0.15734209 -0.2158638 0.08156057 0.27499896
000150 31 b1 e8 bd 23 ef f8 3d 37 b2 d9 3d eb f1 88 be
       -0.113619216 0.12154987 0.10629695 -0.2674707
000160 c6 e0 a7 3d 2a 31 35 3e c8 04 56 be fb cc b2 3d
       0.08197169 0.17694536 -0.20900261 0.08730503
000170 e5 b8 5a 3e f5 96 46 3d 04 d3 04 be 2e a0 e0 3d
       0.21359594 0.048483808 -0.12971121 0.10968052
000180 94 93 45 be c0 25 9c 3d 7b 05 61 be eb 5c ed 3d
       -0.19294578 0.07624388 -0.21974747 0.11589988
000190 1d 15 bb bd 6a a4 d0 3d 20 f7 b5 bd 6c 3c 1c be
       -0.091348864 0.101876095 -0.08885026 -0.15257424
0001a0 03 e7 7f 3d c3 86 51 3e 4c 53 91 3d 3d d0 0d 3e
       0.06247617 0.20461564 0.07095966 0.13848968
0001b0 15 6e 71 3d ec f6 f0 3d 24 d3 a1 bd ff e5 ea 3d
       0.058942873 0.117658466 -0.079016 0.114696495
0001c0 23 05 98 3d 09 e5 cd 3d 2b fe 49 be 0a 57 4c be
       0.07422855 0.100534506 -0.19725864 -0.19955078
0001d0 b8 a0 ec 3d c4 67 18 be 07 f7 ab 3d 5f 5c 98 bd
       0.11554092 -0.14883333 0.08396726 -0.074394934
0001e0 a1 b2 81 3e 20 c8 5d 3d 2d ca 35 be 3e 09 af be
       0.25331596 0.054145932 -0.17752905 -0.3418674
0001f0 25 d5 96 3d e3 88 81 be 58 49 ff 3d 4a c6 7f 3d
       0.07364873 -0.2529975 0.12465161 0.062444963
000200 eb dd 74 3d ce c2 d2 bd e5 0b a9 be 6b 64 12 3e
       0.05978195 -0.10291062 -0.33016887 0.14296119
000210 42 b2 92 be 1f b2 a1 3d f9 af e1 bd 35 26 ab be
       -0.28651625 0.07895302 -0.11019892 -0.33427587
000220 2d c6 22 be 18 30 ba bd 48 59 4f be c8 77 f1 3d
       -0.1589591 -0.090912044 -0.20248902 0.117904246
000230 d4 65 a4 3d 97 2a 51 3d ec 06 92 3d ea 37 17 be
       0.08027235 0.051066007 0.071302265 -0.14767423
000240 28 e0 62 be 09 5f 81 3d 08 81 c2 3d cb 3f 5a be
       -0.22155821 0.06316955 0.09497267 -0.21313398
000250 78 b4 1e 3e fc e8 05 be e4 a2 a0 3d bc 3f 7d be
       0.15498531 -0.13077158 0.07843569 -0.24731344
000260 79 a4 01 be 3a 18 9e be 51 34 07 3e 5a ac 7f be
       -0.12660398 -0.30877858 0.13203551 -0.2496809
000270 a7 2e 2f 3d 24 18 93 3e 0f 41 98 3d e7 7d d5 3d
       0.0427691 0.28729355 0.07434284 0.104244046
000280 f4 27 b2 bd 12 12 26 3e 97 db 94 3d 40 94 03 3d
       -0.08699027 0.16217831 0.07268446 0.032123804
000290 df 24 0b be e6 5d 77 3d 42 2a d8 bd c2 cf 2b 3e
       -0.13588284 0.060392283 -0.10554935 0.16778472
0002a0 24 ef 30 3e 42 1d 14 3e da 3f b5 3d 7a 11 67 be
       0.17278725 0.14464286 0.08850069 -0.2256526
0002b0 67 a3 de 3d e4 79 a7 bd 94 f0 b5 3d bd b5 2a 3d
       0.1087101 -0.08177546 0.08883777 0.041677225
0002c0 ac 2f ca 3d e7 61 52 3d f2 3c 2d be a6 44 8a 3d
       0.09872374 0.0513629 -0.1691778 0.06751375
0002d0 13 80 19 3d 62 b2 d2 bd e5 f9 4e 3d 32 5f 6c be
       0.037475657 -0.1028793 0.050531287 -0.23083189
0002e0 60 66 96 be 1d e2 26 be a3 46 ba 3d e3 9c 82 be
       -0.2937498 -0.16297193 0.09095504 -0.2551032
0002f0 db 22 b7 3d 40 9d a5 3d 69 4f f1 3d c3 c5 dd bd
       0.08942195 0.08086634 0.117827244 -0.10828736
000300 e3 6b 8c 3d bd e9 81 3d 5b 19 85 3d 70 2f 08 3e
       0.06856515 0.0634341 0.06498977 0.13299346
000310 f6 21 fd bd 43 20 3a be d7 48 ac 3d 90 a8 a2 be
       -0.12359993 -0.1817637 0.084123306 -0.31769228
000320 e1 28 86 3d 91 31 86 be 32 81 53 be 02 0e 6b 3d
       0.06550766 -0.2620969 -0.20654753 0.057386406
000330 8f 48 ec bd 35 81 6c 3d 4b 74 68 be 11 a3 7b be
       -0.11537277 0.05774041 -0.22700612 -0.24573924
000340 55 42 a1 3d 6b 88 fd bd bb f5 0c 3e a1 ec 92 3d
       0.0787398 -0.12379535 0.13765614 0.0717404
000350 d7 7a a8 bd 5b 24 11 3e 03 2c 3e 3e 14 2f ef 3d
       -0.08226555 0.14174025 0.18571477 0.11678901
000360 03 bf 6f 3d 35 0f 44 be c4 1e 6b 3d b7 d4 fa 3d
       0.058531772 -0.19146426 0.057402387 0.122476034
000370 04 ed 84 3d 6c d0 af 3d 04 28 6f 3d a1 da 5d be
       0.0649052 0.08584675 0.05838777 -0.21665432
000380 33 77 b3 3d 2e d3 45 be 67 73 96 3d 1f 8e a5 3d
       0.0876297 -0.1931884 0.0734623 0.08083748
000390 6f 87 bb be c5 82 ac 3d 38 79 15 3d 9c 4d e4 3d
       -0.36626765 0.0842338 0.036492556 0.11147615
0003a0 8b 1b c5 3d b5 2d 80 be a9 17 10 3e 57 3c b6 3d
       0.09624394 -0.25034872 0.14071526 0.08898228
0003b0 22 4d ea 3c a0 41 8b be 04 2d ea 3d a8 15 01 3e
       0.028601233 -0.27198505 0.11434367 0.12605917
0003c0 a3 26 03 be db 9b 35 be 31 41 4f 3e 24 51 96 3d
       -0.12807707 -0.17735235 0.20239712 0.07339695
0003d0 e9 a9 68 3d 95 66 e7 3d 86 40 2e be cd 93 0a 3d
       0.056802664 0.11298863 -0.17016801 0.03383236
0003e0 20 47 90 3d f3 14 47 be 30 76 02 3e e2 71 8d be
       0.07044816 -0.19441585 0.12740397 -0.27625948
0003f0 8b 95 16 3e 13 c0 d5 3d 37 41 25 be e5 35 f2 3d
       0.14705484 0.10437026 -0.16138159 0.11826686

linear3.bias f4 [4]
000000 df a1 0f 3f e5 62 19 3f f9 0e 0b 3f 64 de 07 3f
       0.5610637 0.59916526 0.5431972 0.53073716
