critic.pth (torch_old, 547873 bytes, 6 tensors)

linear1.weight f4 [400, 37]
0.4874966 0.39415678 0.18978848 0.046692234 0.28851494 -0.0427124 -0.08979524 0.0124458205
0.27656117 0.14152993 0.019439831 0.02649588 -0.04180445 -0.55567586 -0.24698003 -0.2751743
0.10066761 0.11260716 -0.08158443 0.05108957 0.00015271243 0.061032116 0.0039346535 -0.2663641
-0.039697263 -0.05417672 0.32880273 0.4756122 -0.00017486635 -0.041620106 -0.69220585 0.14204086
-1.5041814 0.007001727 -0.0652431 0.034260623 0.10573688 0.01181987 0.2297397 -0.32830316
0.089776754 0.9168125 0.98056144 0.3127021 0.085775524 -0.39434135 0.2282356 -0.07768376
0.15160114 0.20111957 -0.022149483 0.19789614 0.39018542 0.1859064 -0.013273189 -0.39964098
0.55029124 -0.039853554 0.11526796 0.15832487 -0.10349347 -0.14110632 -0.11986616 0.12446874
1.0645022 0.17151605 0.00627701 -0.9361559 0.101989284 0.8741872 0.050018862 -0.19916083
-0.13030641 0.020567585 0.25396496 -0.06951713 -0.10787592 0.17431319 -0.06734287 0.6802364
-0.4185199 0.20889713 0.045396246 0.2351045 0.030546378 0.28471524 0.18256049 -0.04927148
0.43405035 -0.10534144 -0.5795709 0.22773832 0.4837288 0.26076487 -0.19598027 -0.049312644
-0.137135 0.20694658 0.11746075 0.05062553 0.04822879 1.504756 0.035457347 -0.041376725
-1.5505929 -0.00295493 0.2903668 0.40951753 0.27252516 0.021089522 -0.28557846 -0.049295228
0.34666312 0.29045036 0.33232266 -1.5367781 -1.1622247 -0.2702484 -0.3067298 0.28581822
-0.15284747 -0.30329838 0.10181508 0.001472096 -0.28500167 0.29925293 -0.19771315 -0.015594588
-0.11340355 0.19010264 -0.52849287 0.007635125 0.10834571 -0.01871242 -0.16331655 0.14855619
-0.026604977 0.26436222 0.7316633 0.048645668 0.1557263 -0.59398943 0.15608262 0.07444042
0.016434157 -0.05972213 0.093531966 -0.11453078 -0.21928108 0.36385998 0.2806258 -0.12695654
0.9162747 -0.36997056 -0.40825075 -0.21367806 0.104736544 -0.26742545 -0.1176528 -0.00019173799
-0.0018873934 0.25560758 -0.22743855 0.09166152 -0.8440746 -0.13693798 -0.43672073 0.7175933
-0.012065055 -0.22739148 0.19733323 -0.18339972 -0.3500402 -0.059330318 -0.0746068 1.0389416
-0.17159918 -0.07338883 -0.8034662 -0.13285004 0.1757565 -0.04397206 -0.47828007 -0.26424527
0.039245073 0.47175685 0.24444097 -0.096656345 -0.32575408 0.48401996 -0.3635587 0.070395425
0.10604024 0.22636661 -0.031748306 0.14588584 0.10467401 -0.10537767 -0.25796276 -0.078620955
-0.14531732 0.27731392 0.016489822 -0.10472305 0.34230015 -0.083108716 0.035411384 -0.035900123
-0.070576824 0.014392545 -0.08722483 -0.23349302 0.6143943 0.094861194 -0.001155138 -0.57278943
-0.12859373 -1.2576267 0.015343757 0.04426054 0.0629142 -0.11593259 0.07251209 0.104530625
-0.59234244 -1.1477003 -0.3519857 -0.23983082 -0.41955906 0.04743948 0.48638842 0.37391177
-0.075708725 0.021731451 0.15734242 0.047811504 0.3893398 0.56396574 -0.5810229 -0.6466126
-1.0103213 0.1089939 -0.016020376 -0.09337884 -0.114499494 0.030999502 -0.0039199293 0.22987625
0.11877388 0.5305049 -0.18894799 0.021728784 -0.42250943 -0.048057035 0.46085602 -0.027351717
00000000: 2899 f93e ebce c93e e957 423e 5b40 3f3d
00000010: 3bb8 933e 33f3 2ebd 91e6 b7bd 8ee9 4b3c
00000020: 6d99 8d3e 39ed 103e 4840 9f3c e30d d93c
00000030: 253b 2bbd c640 0ebf 55e8 7cbe a5e3 8cbe
00000040: d22a ce3d 959e e63d bd15 a7bd 4c43 513d
00000050: 6e21 2039 d0fc 793d 44ee 803b e060 88be
00000060: 9999 22bd 69e8 5dbd d558 a83e 7183 f33e
00000070: 545c 37b9 d879 2abd 6734 31bf 2973 113e
00000080: 0489 c0bf be6e e53b 2d9e 85bd de54 0c3d
00000090: 948c d83d 21a8 413c e240 6b3e 5a17 a8be
000000a0: e0dc b73d 39b4 6a3f 1306 7b3f 7d1a a03e
000000b0: 14ab af3d 1ce7 c9be 98b6 693e aa18 9fbd
000000c0: 543d 1b3e 4af2 4d3e d572 b5bc 49a5 4a3e
000000d0: 62c6 c73e 3f5e 3e3e ca77 59bc be9d ccbe
000000e0: e3df 0c3f 7b3d 23bd 9c11 ec3d ea1f 223e
000000f0: 62f4 d3bd 2d7e 10be 647c f5bd 77e9 fe3d
00000100: 9c41 883f e7a1 2f3e 60af cd3b eaa7 6fbf
00000110: c2df d03d bbca 5f3f 94e0 4c3d d1f0 4bbe
00000120: 0b6f 05be 5a7d a83c b207 823e ff5e 8ebd
00000130: 0dee dcbd 287f 323e 0feb 89bd f923 2e3f
00000140: 3e48 d6be 21e9 553e 6af1 393d 3cbf 703e
00000150: 663c fa3c 32c6 913e 23f1 3a3e e4d0 49bd
00000160: d93b de3e 41bd d7bd c25e 14bf 3c34 693e
00000170: 4dab f73e f982 853e 0daf 48be 0efc 49bd
00000180: 1e6d 0cbe cee9 533e 438f f03d b75c 4f3d
00000190: 8d8b 453d d89b c03f b93b 113d a47a 29bd
000001a0: d479 c6bf 80a7 41bb f5aa 943e 48ac d13e
000001b0: 6b88 8b3e efc3 ac3c 5737 92be cbe9 49bd
000001c0: d47d b13e e9b5 943e 3226 aa3e 25b5 c4bf
000001d0: c7c3 94bf 005e 8abe b00b 9dbe c456 923e
000001e0: 0c84 1cbe ed49 9bbe 6d84 d03d 58f3 c03a
000001f0: bdeb 91be ae37 993e 5175 4abe 7180 7fbc
00000200: 1f40 e8bd 44aa 423e 4f4b 07bf 1230 fa3b
00000210: 5be4 dd3d ca4a 99bc 743c 27be 1d1f 183e
00000220: aef2 d9bc 7c5a 873e 494e 3b3f ae40 473d
00000230: b776 1f3e b10f 18bf 1fd4 1f3e 3874 983d
00000240: eda0 863c 319f 74bd b08d bf3d 1d8f eabd
00000250: 388b 60be db4b ba3e 2fae 8f3e e500 02be
00000260: fb90 6a3f c86c bdbe 3e06 d1be 6cce 5abe
00000270: 1d80 d63d fdeb 88be f4f3 f0bd 460d 49b9
00000280: 6a62 f7ba ffde 823e a7e5 68be 09b9 bb3d
00000290: 4615 58bf 7839 0cbe dc99 dfbe 32b4 373f
000002a0: 82ac 45bc 50d9 68be b911 4a3e 23cd 3bbe
000002b0: 7838 b3be 5904 73bd 73cb 98bd 0afc 843f
000002c0: b2b7 2fbe e24c 96bd f6af 4dbf d709 08be
000002d0: 83f9 333e 0c1c 34bd 20e1 f4be 284b 87be
000002e0: 71bf 203d 1d8a f13e bc4e 7a3e c3f3 c5bd
000002f0: 3dc9 a6be 77d1 f73e 5e24 babe 7a2b 903d
00000300: a02b d93d a6cc 673e 830a 02bd 1963 153e
00000310: 545f d63d 3fd0 d7bd b213 84be 0604 a1bd
00000320: 10ce 14be 17fc 8d3e aa15 873c 0a79 d6bd
00000330: f741 af3e e734 aabd 870b 113d 020c 13bd
00000340: 958a 90bd b6ce 6b3c efa2 b2bd cb18 6fbe
00000350: f248 1d3f 9646 c23d 0068 97ba 54a2 12bf
00000360: 13ae 03be e9f9 a0bf 6264 7b3c 8a4a 353d
00000370: 29d9 803d 116e edbd 3881 943d 2714 d63d
00000380: c1a3 17bf d8e7 92bf 7837 b4be 3696 75be
00000390: 72d0 d6be e64f 423d e707 f93e 5d71 bf3e
000003a0: 2d0d 9bbd 2806 b23c 5f1e 213e ffd5 433d
000003b0: 8c57 c73e 0f60 103f ebbd 14bf 6788 25bf
000003c0: 3552 81bf 3238 df3d 2a3d 83bc 683d bfbd
000003d0: b67e eabd abf2 fd3c c072 80bb ae64 6b3e
000003e0: b83f f33d 2bcf 073f 957b 41be 9000 b23c
000003f0: 2853 d8be 74d7 44bd 52f5 eb3e b510 e0bc

linear1.bias f4 [400]
-0.7351853 -0.84206504 -1.4482658 -0.7256107 -1.0507797 -0.57480454 -0.62378025 -0.6458749
-0.5427514 -0.7140351 -1.1778699 -0.5445175 -0.5857568 -0.20879555 -0.8186908 -1.0068531
-1.144809 -1.1354711 -0.5897048 -0.7498613 -0.5864033 -1.2365615 -0.27232265 -0.903765
-0.967703 -0.50604904 -0.5691795 -0.4966181 -0.4731254 -0.6527718 -0.6147941 -0.77811515
-0.7840969 -0.8296682 -0.67548305 0.21839446 -0.6626448 -0.89361715 -0.9871306 -0.57030267
-0.5665846 -0.4244964 -0.5278863 -0.71191794 -0.6050373 -0.30768654 -1.0373766 -0.82337075
-0.5650607 -1.1985854 -0.7755884 -0.9620479 -0.5055597 -0.6086855 -0.7612995 -1.0546927
-0.4887669 -0.9815688 -0.62944216 -0.89331543 -0.88702166 -0.5792295 -0.83623713 -0.7588948
0.1342443 -0.90924656 -0.6026354 -1.1413026 -0.9727304 -1.2363762 -0.799668 -0.9918494
-0.6742061 -1.1398892 -0.6806585 -0.9145881 -0.73436236 -0.45260918 -0.46733668 -0.91094637
-1.1859117 -1.0403756 -0.18662487 -0.87728995 -0.79667383 -0.6364151 -0.4596092 -0.79327935
-0.41359934 -0.5617146 -0.7055574 -0.49302015 -0.8909588 -1.0437845 -0.4892795 -0.8138161
-0.7993858 -0.7178327 -0.33072308 -0.78321874 -0.9629507 -0.746632 -0.5667998 -0.77169335
-1.0052004 -0.5139428 -0.5689244 -0.5034501 -0.7431644 -1.0387096 -0.41214913 -1.0359167
-0.86671036 -0.69156367 -0.929509 -1.1184955 -0.5821197 -0.69932103 -0.9172203 -0.48738706
-0.945835 -1.0973524 -1.0079775 -0.6320986 -0.37352905 -0.6830526 -0.71372545 -0.47001278
-0.7600844 -0.774008 -1.0837946 -0.8823737 -0.38382107 -0.92690647 -0.76655793 -1.0116193
-1.0053842 -0.7591457 -0.7798563 -0.4885687 -0.7019677 -0.28676546 -0.59046185 -0.4729814
-0.7114402 -0.18073551 -0.42898032 -0.65260434 -0.78912616 -0.602957 -0.6233116 -0.6688158
-0.49720454 -1.091285 -0.29432645 -1.2145879 -0.8060323 -0.6068029 -0.7840671 -0.7440377
-0.9183571 -0.72954416 -0.9015817 -1.0042204 -0.33156088 -0.87654364 -0.61871916 -0.40985253
-0.7812126 -1.0697348 -0.48821726 -1.2399746 -0.20286064 -0.36485597 -0.9446429 -0.5706062
-1.0851316 -0.5814094 -0.9249536 -0.76597035 -0.8184106 -1.0805167 -0.9504606 -0.44473362
0.48184127 -0.7869789 -0.45206043 -0.98287964 -0.64499557 -0.68010426 -0.86978453 -0.9812358
-0.83230853 -1.0644001 -0.90457547 -1.1210309 -0.8674392 -0.851141 -0.20610628 -0.378635
-0.967203 -0.53480744 -0.54796433 -0.9448142 -0.99750364 -0.9931046 -0.89885694 -0.4827354
-1.0485101 -0.9510628 -0.65156204 -0.68879026 -0.9258025 -0.43150285 -0.49075347 -0.7616603
-0.74791306 -0.36418167 -0.653644 -0.6945814 -0.88205475 -0.6430747 -0.5954965 -0.29302016
-0.6781691 -0.6044719 -0.7973845 -0.6187003 -0.8944477 -0.5330908 -0.810266 -0.7873624
-0.8200822 -0.4377479 -1.1147228 -0.59860075 -1.1971444 -0.44337344 -0.93267524 -0.35874355
-0.37550724 -0.3876302 -0.72225755 -0.605709 -0.9269289 -0.9560074 -1.0666566 0.074819386
-0.90291613 -0.7940891 -0.6500343 -0.88211656 0.13143674 -0.5958893 -0.5409223 -0.72811764
00000000: 1b35 3cbf 9391 57bf c660 b9bf 9fc1 39bf
00000010: f37f 86bf 6426 13bf 10b0 1fbf 0f58 25bf
00000020: c1f1 0abf 01cb 36bf 71c4 96bf 8065 0bbf
00000030: 28f4 15bf 80ce 55be b895 51bf 90e0 80bf
00000040: 1a89 92bf 1e57 91bf e5f6 16bf e9f6 3fbf
00000050: 871e 16bf a647 9ebf e06d 8bbe 255d 67bf
00000060: 62bb 77bf 6e8c 01bf bfb5 11bf ba44 febe
00000070: 7e3d f2be 0d1c 27bf 2563 1dbf 8e32 47bf
00000080: 93ba 48bf 2365 54bf 75ec 2cbf cca2 5f3e
00000090: 17a3 29bf 18c4 64bf 97b4 7cbf 5bff 11bf
000000a0: b00b 11bf 9857 d9be 8e23 07bf 4140 36bf
000000b0: b9e3 1abf 1789 9dbe c2c8 84bf 6dc8 52bf
000000c0: d1a7 10bf 3f6b 99bf f68c 46bf c548 76bf
000000d0: 5c6c 01bf d0d2 1bbf 86e4 42bf 2c00 87bf
000000e0: a83f fabe 1848 7bbf 1f23 21bf 52b0 64bf
000000f0: da13 63bf 6248 14bf a313 56bf ee46 42bf
00000100: 5677 093e 62c4 68bf 5046 1abf 3416 92bf
00000110: dc04 79bf 9341 9ebf 0bb7 4cbf d8e9 7dbf
00000120: c598 2cbf e4e7 91bf a33f 2ebf 7222 6abf
00000130: 2cff 3bbf 64bc e7be c146 efbe c833 69bf
00000140: f4cb 97bf 072b 85bf 971a 3fbe 1396 60bf
00000150: d1f2 4bbf 1aec 22bf e651 ebbe 5b14 4bbf
00000160: 4bc3 d3be 87cc 0fbf 699f 34bf 236d fcbe
00000170: e015 64bf bb9a 85bf d882 fabe 4056 50bf
00000180: 8ca4 4cbf e2c3 37bf 8954 a9be 0681 48bf
00000190: f083 76bf 4623 3fbf cb19 11bf b28d 45bf
000001a0: 68aa 80bf c191 03bf 08a5 11bf 1be2 00bf
000001b0: 0640 3ebf 70f4 84bf 3605 d3be eb98 84bf
000001c0: bbe0 5dbf 510a 31bf 4df4 6dbf dc2a 8fbf
000001d0: cc05 15bf b406 33bf f3ce 6abf cc8a f9be
000001e0: 3e22 72bf 0b76 8cbf 6805 81bf 37d1 21bf
000001f0: 333f bfbe 89dc 2ebf b6b6 36bf 84a5 f0be
00000200: e494 42bf 6325 46bf c8b9 8abf 3ee3 61bf
00000210: 3284 c4be be49 6dbf 243d 44bf be7c 81bf
00000220: 6eb0 80bf 5f57 42bf aaa4 47bf ad25 fabe
00000230: 28b4 33bf ecd2 92be 8228 17bf 9e2a f2be
00000240: f220 36bf bb12 39be 4fa3 dbbe 1411 27bf
00000250: 2c04 4abf 645b 1abf 5991 1fbf 8337 2bbf
00000260: 9891 febe 3aaf 8bbf f5b1 96be 9e77 9bbf
00000270: 2258 4ebf 6f57 1bbf 9fb8 48bf 4179 3ebf
00000280: 7319 6bbf 68c3 3abf 0fce 66bf 4b8a 80bf
00000290: 59c2 a9be 2a65 60bf 6164 1ebf 31d8 d1be
000002a0: 8dfd 47bf 12ed 88bf 9df7 f9be 7db7 9ebf
000002b0: b3ba 4fbe 67ce babe 1ed4 71bf 3f13 12bf
000002c0: 98e5 8abf 3fd7 14bf c2c9 6cbf a216 44bf
000002d0: 5b83 51bf 5f4e 8abf 6351 73bf 20b4 e3be
000002e0: e6b3 f63e 7377 49bf 7774 e7be 009e 7bbf
000002f0: 6e1e 25bf 501b 2ebf 33aa 5ebf 4532 7bbf
00000300: 2c12 55bf 433e 88bf 4292 67bf f17d 8fbf
00000310: 7f10 5ebf 60e4 59bf 860d 53be 72dc c1be
00000320: 9e9a 77bf 24e9 08bf 6447 0cbf 58df 71bf
00000330: 665c 7fbf 1a3c 7ebf 7d1b 66bf 1829 f7be
00000340: 9435 86bf da78 73bf c5cc 26bf 8f54 30bf
00000350: 6501 6dbf f1ed dcbe 0a44 fbbe 2bfc 42bf
00000360: 3b77 3fbf 0576 babe 3755 27bf 16d0 31bf
00000370: 57ce 61bf 8ba0 24bf 7572 18bf bd06 96be
00000380: 7d9c 2dbf acbe 1abf 6421 4cbf 2563 1ebf
00000390: 86fa 64bf a378 08bf 986d 4fbf 9590 49bf
000003a0: e8f0 51bf 7e20 e0be 3daf 8ebf e63d 19bf
000003b0: 073c 99bf d801 e3be cec3 6ebf 3cad b7be
000003c0: 7c42 c0be 7777 c6be dfe5 38bf bf0f 1bbf
000003d0: 364b 6dbf e7bc 74bf 3488 88bf e83a 993d
000003e0: 8325 67bf 6c49 4bbf a668 26bf 64d2 61bf
000003f0: 5a97 063e 338c 18bf e279 0abf eb65 3abf

linear2.weight f4 [300, 400]
-0.49546275 0.015888434 -0.41748655 -0.031440977 -0.63607 -0.70165735 -0.28435335 -0.25978276
-0.07952025 0.029485008 -0.02105567 0.11913202 -0.5406306 0.061437085 0.04436937 -0.095754415
-0.6798128 -0.2707676 -0.22907442 -0.74972504 0.0033308684 -0.10502435 0.0027801811 -0.039860174
0.34822333 -1.0947452 -0.09102481 -0.92702985 0.40475345 0.11295768 -0.0067793503 -0.1701784
0.26693547 0.21054178 -0.10210946 -0.24150887 -0.069548205 0.014801058 0.31098637 0.07409955
0.12387008 -0.6345851 0.11991776 -0.37689093 0.15666017 -0.29362008 -0.12391695 -0.28364876
-0.53993964 -0.17791308 0.08993965 -0.23602569 0.30231375 -0.25676644 0.005275028 -0.33479244
0.256884 -0.4881742 -0.12101836 0.1738002 -0.1659645 0.2476049 -0.7112303 0.11857821
0.39166936 0.27807805 0.23096068 0.3812462 -0.11766706 -0.13449799 -0.25996828 0.51955956
0.03397422 -0.36831352 -0.16587734 -0.35424605 0.034960095 -0.76305664 -0.38474536 -0.3929824
0.086285606 -0.18881895 0.19958027 0.23045531 0.15991162 0.11110759 -0.1144325 -0.07078453
-0.24405143 0.14967248 -0.3584596 -0.1161186 0.2617794 0.3662082 -0.913113 0.039101303
0.13748507 -0.17600244 -0.8158943 -0.3087971 -0.7006706 -0.76903856 -0.43621597 0.10816144
-0.41636264 -0.6000946 -0.116789766 0.20649713 -0.013418447 -0.20115942 0.01919531 0.1581079
-0.11513685 -0.15629086 -0.6497482 -0.17621511 -0.5363404 0.084239095 0.020283548 0.19643345
-0.69658685 -0.38187402 -0.50007826 -0.5881906 0.26642007 0.13157253 0.025498772 0.21941784
-0.552681 0.004086118 -0.6566307 -0.052423574 -0.74778795 -0.46386778 -0.44926018 0.021339511
-0.16324966 -0.5466012 -0.0043792427 -0.5499566 -0.17283538 -0.11983224 -0.112015545 -0.090539865
-0.6790835 -0.3529194 -0.21938239 -0.23765545 -0.50760067 0.54314584 -0.9673415 -0.029417243
-0.1504111 -0.28856662 -0.94594276 -0.22072037 0.31317082 -0.36880493 0.301274 -0.112308025
-0.24294911 0.29430705 0.033609927 0.34050617 0.15649587 -0.2827761 0.30319405 0.26130873
-0.24654281 0.25819018 0.44937912 0.1345104 0.48944834 -0.10992228 -0.2146338 0.11957216
-0.073819205 -1.6904167 0.047234185 -0.8400606 0.15186167 0.12817144 -0.3797287 -0.4201669
0.10911592 -0.20387007 -0.31242463 0.22159289 0.39982888 -0.17392686 -0.68355364 0.07414029
0.35446674 -0.013409755 -0.08276693 0.044754002 -0.12789541 -0.597821 0.27707103 -0.01726674
-0.7487818 -0.11532452 -0.6255956 -0.23267055 -0.030548116 0.052763704 0.4027756 -0.15448631
0.6349118 0.16215922 -0.07882282 0.21872541 0.39078718 -0.8731678 -0.29618376 -0.29697067
0.27283362 -0.25047392 -1.0490998 -0.1837148 -0.42646155 -0.26260436 -0.006350512 -0.20398438
-0.51239556 0.019296117 0.6132076 0.019079275 0.1625261 -0.8337435 -0.12335813 0.30963477
-0.6234302 -0.5997609 0.33084732 0.22829486 -0.57728165 0.09300031 0.1515376 -0.32381457
0.037624896 -0.0048612845 -0.17333308 -0.05734205 -0.5570915 -0.43543985 -0.18886492 -0.3014753
0.26694974 -0.4264955 0.3161616 0.050406124 -0.12489806 -0.06612604 -0.049293403 0.4211615
00000000: 4bad fdbe 7628 823c ccc0 d5be 41c8 00bd
00000010: 7cd5 22bf d19f 33bf c396 91be 3f02 85be
00000020: 83db a2bd 8b8a f13c f17c acbc 7dfb f33d
00000030: c466 0abf 74a5 7b3d a8bc 353d e41a c4bd
00000040: 3608 2ebf 0da2 8abe 7c92 6abe fbed 3fbf
00000050: b34a 5a3b 0217 d7bd b333 363b 6c44 23bd
00000060: 544a b23e 9c20 8cbf 376b babd d451 6dbf
00000070: d83b cf3e 5b56 e73d 5025 debb 3f43 2ebe
00000080: c4ab 883e 4498 573e c41e d1bd 1a4e 77be
00000090: 4a6f 8ebd 2380 723c 9b39 9f3e 81c1 973d
000000a0: 99af fd3d 2b74 22bf 7197 f53d d9f7 c0be
000000b0: 866b 203e 5f55 96be 2bc8 fdbd 693a 91be
000000c0: 7c39 0abf d92e 36be 4732 b83d b8b0 71be
000000d0: dec8 9a3e e476 83be 24da ac3b ea69 abbe
000000e0: 4d86 833e f8f1 f9be 79d8 f7bd aef8 313e
000000f0: 99f2 29be 248c 7d3e 3013 36bf 22d9 f23d
00000100: e388 c83e 3f60 8e3e f580 6c3e b432 c33e
00000110: 6dfb f0bd d7b9 09be 901a 85be db01 053f
00000120: 8d28 0b3d 9793 bcbe c0db 29be bd5f b5be
00000130: 5132 0f3d ae57 43bf 58fd c4be fd34 c9be
00000140: 82b6 b03d c159 41be c55e 4c3e 7afc 6b3e
00000150: dfbf 233e 608c e33d 965b eabd 7bf7 90bd
00000160: 9ee8 79be be43 193e 0488 b7be 97cf edbd
00000170: f307 863e a47f bb3e c6c1 69bf b028 203d
00000180: e3c8 0c3e fc39 34be 73de 50bf a71a 9ebe
00000190: 265f 33bf b6df 44bf b357 dfbe bf83 dd3d
000001a0: 7c2d d5be cd9f 19bf 792f efbd fc73 533e
000001b0: 0cd9 5bbc bcfc 4dbe 7c3f 9d3c 0ae7 213e
000001c0: decc ebbd b60a 20be e655 26bf bc71 34be
000001d0: 9b4d 09bf 8c85 ac3d af29 a63c da25 493e
000001e0: 8453 32bf fe84 c3be 2105 00bf a993 16bf
000001f0: 3668 883e f3ba 063e cde2 d03c 12af 603e
00000200: 817c 0dbf d8e4 853b f318 28bf 1aba 56bd
00000210: 086f 3fbf 1480 edbe 6e05 e6be 33d0 ae3c
00000220: eb2a 27be 0eee 0bbf c07f 8fbb f5c9 0cbf
00000230: c2fb 30be 9b6a f5bd 6868 e5bd f76c b9bd
00000240: 6bd8 2dbf dab1 b4be c7a5 60be f35b 73be
00000250: 1ef2 01bf 9b0b 0b3f b1a3 77bf 6efc f0bc
00000260: 5e05 1abe 01bf 93be 4e29 72bf 8504 62be
00000270: ed57 a03e 00d4 bcbe 9640 9a3e c001 e6bd
00000280: a7c7 78be 6aaf 963e 90aa 093d d356 ae3e
00000290: 7440 203e 07c8 90be 403c 9b3e 42ca 853e
000002a0: b875 7cbe 8131 843e 0515 e63e 18bd 093e
000002b0: f998 fa3e ef1e e1bd f6c8 5bbe 40e2 f43d
000002c0: 862e 97bd 935f d8bf a278 413d 360e 57bf
000002d0: a081 1b3e 603f 033e cd6b c2be 1e20 d7be
000002e0: 2b78 df3d 51c3 50be 1ff6 9fbe 3fe9 623e
000002f0: 5fb6 cc3e e219 32be 5ffd 2ebf ddd6 973d
00000300: aa7c b53e 97b4 5bbc b581 a9bd f94f 373d
00000310: 04f7 02be cc0a 19bf 41dc 8d3e fa72 8dbc
00000320: 2ab0 3fbf 432f ecbd 0927 20bf 3041 6ebe
00000330: 0b40 fabc c11e 583d 9a38 ce3e a931 1ebe
00000340: 9489 223f 110d 263e dc6d a1bd 8ef9 5f3e
00000350: 4215 c83e ed87 5fbf 66a5 97be 8a0c 98be
00000360: d9b0 8b3e 1e3e 80be e748 86bf bc1f 3cbe
00000370: 2b59 dabe 1474 86be f517 d0bb 48e1 50be
00000380: 5b2c 03bf e412 9e3c 2cfb 1c3f 244c 9c3c
00000390: 3e6d 263e 3770 55bf 30a3 fcbd 7388 9e3e
000003a0: 1f99 1fbf ee89 19bf d264 a93e 21c6 693e
000003b0: bbc8 13bf f276 be3d ac2c 1b3e 06cb a5be
000003c0: 901c 1a3d 694b 9fbb 3a7e 31be 7fdf 6abd
000003d0: 8c9d 0ebf f9f1 debe ce65 41be f85a 9abe
000003e0: a3ad 883e 9e5d dabe efdf a13e a776 4e3d
000003f0: 8eca ffbd 176d 87bd e1e7 49bd 7ba2 d73e

linear2.bias f4 [300]
-0.39201078 -0.07231946 -0.26035136 -0.038793426 -0.14420128 -0.23651211 0.55364937 -0.21006645
-0.25518826 -0.091681845 0.7145293 -0.08640216 -0.18980321 -0.10983029 -0.19901857 -0.26430485
-0.14836267 -0.05298294 -0.1311884 1.3360078 -0.39036593 -0.40155935 -0.18854527 -0.09331912
-0.037201058 0.7570492 -0.26106277 0.55452925 -0.06927502 -0.19349024 -0.2742111 0.51962656
0.7838787 -0.072685294 -0.026319131 0.3443733 -0.32658148 -0.19956933 -0.060668923 -0.34104615
0.06604027 -0.05523694 -0.10368657 -0.39770347 -0.20611374 1.017117 -0.043301426 0.76354665
-0.030314336 -0.08766657 1.0908904 0.5153003 0.15254153 -0.050491318 0.14676361 -0.2831233
-0.2465578 -0.06318799 -0.22069749 0.077918224 -0.4500122 -0.0823092 -0.11319344 0.44992393
-0.09870547 -0.118296854 -0.10625203 -0.11425628 -0.16031145 -0.13936241 -0.11694008 -0.21578251
-0.12295403 0.24426195 0.18374552 -0.082423374 -0.113880984 1.0532124 -0.04340157 -0.15911716
-0.5125905 -0.02855942 -0.18570727 -0.04720576 -0.48310322 -0.08206248 -0.04370816 -0.2904763
-0.19355433 -0.009709095 -0.06147918 -0.20353584 0.23059425 -0.061560772 -0.5007364 0.075580016
-0.028318537 0.3660349 -0.05001613 1.0815575 -0.34557217 -0.18760702 -0.25917405 -0.09116534
-0.042358194 0.9805743 -0.13610233 0.016362173 0.58741313 -0.25121054 -0.0049704984 0.6358309
-0.08698491 -0.09446347 -0.2088527 -0.09715202 -0.21631415 -0.095844015 1.0281342 -0.0784144
-0.051187344 0.9691025 0.13124329 -0.051818438 0.1181369 -0.3778878 -0.10940729 1.1385658
-0.07291165 -0.14413266 -0.10034864 -0.13871913 -0.1452233 -0.041698366 0.12202897 -0.16091345
-0.31704155 0.19165975 -0.14656484 0.059430562 1.059245 -0.1361767 0.2692394 -0.37480742
0.3701545 -0.24666592 0.27031022 -0.6057936 -0.13545926 -0.114261426 1.0334425 -0.14887312
-0.045509465 -0.4036874 -0.1816737 -0.0813762 -0.21366519 -0.076412894 -0.042694695 -0.21306683
-0.11505021 -0.24589708 0.73998207 -0.035702538 -0.10080257 0.20810668 0.04915385 0.43399197
-0.0605555 0.3347419 0.22510037 -0.06750064 0.6507952 -0.1296263 0.18455717 -0.10414995
-0.74506736 0.22255 -0.1604807 -0.07775297 0.42598966 -0.05877814 -0.047327537 -0.19681476
-0.21477973 -0.2647689 -0.023567148 -0.23534825 -0.19652586 -0.25277773 -0.044092543 -0.69929814
-0.39844197 -0.1740633 -0.47071457 -0.035173412 -0.11066522 -0.28669178 0.34118006 -0.10138144
-0.31629312 -0.296526 -0.19843794 -0.09870033 -0.04476042 -0.31984383 -0.14952137 -0.015863093
0.7124324 -0.16418265 -0.061883893 -0.043958724 -0.2988296 1.4457488 -0.058622178 -0.047902554
-0.04852428 -0.104074515 0.12977292 0.8415964 -0.08155875 0.64692986 -0.49793568 0.528574
0.096214175 -0.20826124 -0.22885028 -0.22701377 -0.09611768 0.119206496 1.0694162 -0.10658763
-0.22615458 0.106440656 -0.30116585 0.9451208 1.0661635 -0.19449708 -0.10782136 0.8924665
-0.06423731 -0.12829147 -0.3507009 0.6075363 0.20127647 -0.2964535 -0.0016898619 -0.26590762
-0.10802254 0.08303041 -0.10300544 -0.04582808 0.24384603 -0.12913345 -0.093956925 -0.14940597
00000000: a3b5 c8be 3a1c 94bd c64c 85be dbe5 1ebd
00000010: 80a9 13be 3b30 72be f7bb 0d3f a91b 57be
00000020: 09a8 82be b1c3 bbbd 64eb 363f 9ef3 b0bd
00000030: c65b 42be b4ee e0bd 86cb 4bbe f752 87be
00000040: 62ec 17be a404 59bd 4056 06be 4e02 ab3f
00000050: 0bde c7be 3099 cdbe 0312 41be 181e bfbd
00000060: 2360 18bd facd 413f 05aa 85be a1f5 0d3f
00000070: 10e0 8dbd 4e22 46be 6665 8cbe 3f06 053f
00000080: 46ac 483f 07dc 94bd 389b d7bc b251 b03e
00000090: b035 a7be e75b 4cbe fa7f 78bd 9a9d aebe
000000a0: 1f40 873d 2140 62bd a059 d4bd ca9f cbbe
000000b0: 7b0f 53be e430 823f d65c 31bd cb77 433f
000000c0: c555 f8bc 888a b3bd 4ca2 8b3f b8ea 033f
000000d0: d933 1c3e fccf 4ebd 3349 163e 8af5 90be
000000e0: a679 7cbe b468 81bd 86fe 61be 9793 9f3d
000000f0: 0068 e6be ba91 a8bd f6d1 e7bd 6e5c e63e
00000100: 1826 cabd 9f45 f2bd aa9a d9bd 32ff e9bd
00000110: af28 24be 05b5 0ebe 487e efbd 17f6 5cbe
00000120: 53cf fbbd ce1f 7a3e c927 3c3e 96cd a8bd
00000130: 6f3a e9bd aacf 863f d8c5 31bd 9cef 22be
00000140: 2239 03bf 72f5 e9bc 0c2a 3ebe d45a 41bd
00000150: 4e59 f7be 6010 a8bd 5407 33bd 4fb9 94be
00000160: 1b33 46be e512 1fbc 98d1 7bbd b36b 50be
00000170: e620 6c3e 2627 7cbd 4330 00bf b2c9 9a3d
00000180: 47fc e7bc ed68 bb3e b7dd 4cbd 7a70 8a3f
00000190: d6ee b0be 0e1c 40be 76b2 84be e5b4 babd
000001a0: c97f 2dbd eb06 7b3f 695e 0bbe f709 863c
000001b0: b560 163f ab9e 80be 90df a2bb d0c5 223f
000001c0: 2525 b2bd 1076 c1bd 7bdd 55be a3f7 c6bd
000001d0: 7581 5dbe de49 c4bd e799 833f bb97 a0bd
000001e0: d2a9 51bd 1a17 783f a464 063e 923f 54bd
000001f0: c2f1 f13d 827a c1be ee10 e0bd 86bc 913f
00000200: b452 95bd 8397 13be 9683 cdbd 630c 0ebe
00000210: 6bb5 14be e8cb 2abd 53ea f93d 7fc6 24be
00000220: 4553 a2be 7442 443e 1815 16be 766d 733d
00000230: 5795 873f e871 0bbe bfd9 893e c2e6 bfbe
00000240: e484 bd3e fe95 7cbe 1a66 8a3e 4a15 1bbf
00000250: d5b5 0abe e501 eabd d847 843f 3272 18be
00000260: 2268 3abd 1db0 cebe ac08 3abe 91a8 a6bd
00000270: 0ccb 5abe 5d7e 9cbd a2e0 2ebd 312e 5abe
00000280: 729f ebbd 72cc 7bbe 776f 3d3f d33c 12bd
00000290: 9471 cebd eb19 553e 8c55 493d 3234 de3e
000002a0: 0b09 78bd 4a63 ab3e b680 663e c73d 8abd
000002b0: 849a 263f c2bc 04be 8efc 3c3e 924c d5bd
000002c0: bcbc 3ebf 26e4 633e 0d55 24be f33c 9fbd
000002d0: 511b da3e 59c1 70bd 85da 41bd cf89 49be
000002e0: 38ef 5bbe ca8f 87be e40f c1bc 22ff 70be
000002f0: 133e 49be 156c 81be 629a 34bd 3405 33bf
00000300: 9600 ccbe a63d 32be 8001 f1be ff11 10bd
00000310: 72a4 e2bd 44c9 92be 27af ae3e 13a1 cfbd
00000320: 2cf1 a1be 42d2 97be 5133 4bbe 6623 cabd
00000330: b456 37bd 92c2 a3be 211c 19be 51f3 81bc
00000340: f861 363f 7f1f 28be f779 7dbd 100e 34bd
00000350: 3100 99be 4c0e b93f cf1d 70bd 7835 44bd
00000360: 65c1 46bd 0525 d5bd 31e3 043e dd72 573f
00000370: 4608 a7bd 329d 253f 6df1 febe a050 073f
00000380: f00b c53d 6f42 55be ba57 6abe 4c76 68be
00000390: 59d9 c4bd 8922 f43d a1e2 883f 9e4a dabd
000003a0: 1195 67be 8ffd d93d 6932 9abe 70f3 713f
000003b0: 0c78 883f 3e2a 47be 72d1 dcbd af78 643f
000003c0: da8e 83bd d75e 03be 128f b3be 8087 1b3f
000003d0: 6b1b 4e3e c1c8 97be 5b7e ddba 0b25 88be
000003e0: ec3a ddbd d90b aa3d 84f4 d2bd 3ab6 3bbd
000003f0: c6b2 793e 8f3b 04be 7d6c c0bd e1fd 18be

linear3.weight f4 [4, 300]
-0.02665873 -0.009812598 -0.016730586 -0.0037912438 -0.029013135 0.041104082 0.018490627 -0.028903712
-0.0033239268 -0.015742421 0.014894474 -0.040940512 -0.07068947 -0.0114211505 -0.05574705 0.0077215005
-0.0006533506 -0.06963633 -0.068368286 0.054373942 0.009808287 0.051790535 -0.027319865 -0.0099148275
-0.012215768 0.026722532 -0.03739638 0.022092294 0.028050575 0.004984081 -0.011377611 0.016499065
0.034532856 0.05679353 -0.040759467 0.019285155 0.036452048 0.034498073 -0.026451588 -0.04189639
-0.053471345 -0.0034876599 0.031805474 -0.04185663 -0.021597564 0.034097612 0.017004063 0.018017842
0.016819704 -0.0075112227 0.022108775 0.023403091 0.02431417 0.006353725 0.03479456 -0.07448441
-0.033041153 0.00683871 0.007995338 -0.03732928 -0.041541245 -0.031506993 0.03172619 0.021181809
-0.0019121291 0.07966116 0.012853622 -0.05958974 -0.058067996 -0.06657364 0.0051727337 0.016756693
-0.028616725 0.057069104 0.05353104 0.00019006149 0.00850118 0.030245973 -0.026056321 -0.007528981
-0.02512146 0.056345187 0.0022307914 -0.027585816 -0.055232145 -0.007951249 -0.027633632 -0.0069669313
0.01648883 -0.02241842 0.018772982 -0.06216006 0.019839738 -0.039318997 -0.04437541 0.033924673
-0.033259153 0.025908405 0.003810442 0.020452676 -0.03743463 -0.01583629 -0.034178462 -0.022494005
-0.006025251 0.026472915 0.038000956 0.04372415 0.05493515 -0.017116245 0.027838776 0.016237875
0.023998467 -0.03699579 -0.030053595 0.022984846 -0.073948935 0.010011327 0.037450284 0.031067327
-0.021658307 0.031862363 0.08144052 -0.009346724 0.035924964 -0.05219606 0.00437009 0.027551511
-0.07472562 -0.021350466 0.005004434 -0.04719338 -0.021336948 -0.011845705 0.02916096 -0.027552497
-0.023148486 0.13832782 -0.05059456 0.027992243 0.028387865 -0.037815675 0.026210377 -0.03588088
0.022621544 -0.025109505 0.028211333 -0.020969843 -0.045931585 -0.030812236 0.021606032 -0.011226962
-0.010800808 -0.025936825 0.003931252 -0.042663887 -0.036234677 0.025962014 -0.01986522 -0.048074942
-0.049751267 -0.0047886134 0.02867691 -0.020818805 0.008954923 0.032514025 -0.100229025 0.026698885
-0.021106372 0.016744146 0.034577746 -0.04066969 -0.028421633 -0.050820723 0.023262402 -0.060820807
-0.043286514 0.025481137 0.0754759 -0.04110712 0.017875059 0.028307032 -0.057359554 0.021899423
-0.02765368 -0.046119083 0.009169552 -0.0054648123 -0.04479543 -0.04502272 0.00016346695 -0.033215273
-0.05294174 0.01237384 -0.07352327 0.07534614 0.02058117 -0.041460317 0.021104138 -0.015204524
-0.037181325 -0.06492582 -0.03753728 -0.026434004 0.060806703 -0.009705642 -0.031108232 -0.108643085
0.021249864 -0.056289338 0.03780245 0.00057920953 -0.0012671755 0.055276714 0.002485755 0.0040190574
-0.007401595 -0.03067396 0.034941636 0.030638644 0.009878727 0.016204063 -0.036688533 0.028715055
-0.041496098 -0.06336597 0.02446642 -0.079219475 0.011564086 0.047282077 0.032046705 0.0055141393
-0.024922607 -0.032075677 -0.04788709 0.014491982 0.018772155 -0.018110929 -0.005299374 0.018992199
-0.015123323 -0.02912531 0.023357468 0.022326738 0.059827942 0.1751888 -0.045729436 -0.04964491
-0.029759057 0.027108638 0.01220907 0.019695664 0.023870252 0.04854676 -0.047395132 0.03401989
00000000: 6963 dabc 05c5 20bc 950e 89bc 8476 78bb
00000010: f4ac edbc c15c 283d a879 973c 7ac7 ecbc
00000020: 3dd6 59bb 40f6 80bc f407 743c 3db1 27bd
00000030: a4c5 90bd c71f 3bbc 0557 64bd a404 fd3b
00000040: 9e45 2bba 7e9d 8ebd ac04 8cbd 36b7 5e3d
00000050: f0b2 203c 5022 543d e9cd dfbc cd71 22bc
00000060: a524 48bc 36e9 da3c f22c 19bd e6fa b43c
00000070: 52ca e53c 8051 a33b 2969 3abc 0c29 873c
00000080: 5372 0d3d 55a0 683d 66f3 26bd e7fb 9d3c
00000090: be4e 153d da4d 0d3d 00b1 d8bc 8d9b 2bbd
000000a0: c504 5bbd 3991 64bb 7546 023d dc71 2bbd
000000b0: 60ed b0bc f0a9 0b3d 1b4c 8b3c 279a 933c
000000c0: 7ac9 893c b420 f6bb 761d b53c d7b7 bf3c
000000d0: 832e c73c e932 d03b be84 0e3d 488b 98bd
000000e0: 2956 07bd 4217 e03b e1fe 023c 96e6 18bd
000000f0: 2727 2abd 7a0d 01bd 52f3 013d 7985 ad3c
00000100: 68a0 faba 6425 a33d 0098 523c 5f14 74bd
00000110: b5d8 6dbd c357 88bd 0980 a93b 5545 893c
00000120: 9f6d eabc 4bc1 693d 5d43 5b3d 3e4b 4739
00000130: 8948 0b3c 67c6 f73c 1174 d5bc acb5 f6bb
00000140: 85cb cdbc 36ca 663d 7832 123b a6fb e1bc
00000150: 1a3b 62bd f545 02bc ed5f e2bc db4a e4bb
00000160: 9513 873c d6a6 b7bc ccc9 993c 8c9b 7ebd
00000170: f286 a23c f50c 21bd fdc2 35bd 99f4 0a3d
00000180: c03a 08bd dd3d d43c 9cb8 793b 5f8c a73c
00000190: 0e55 19bd 1bbb 81bc b7fe 0bbd 5945 b8bc
000001a0: 786f c5bb badd d83c e4a6 1b3d 1818 333d
000001b0: ae03 613d 5e37 8cbc 250e e43c 4b05 853c
000001c0: 6f98 c43c e688 17bd f532 f6bc b74a bc3c
000001d0: 8a72 97bd 8d06 243c 7865 193d e880 fe3c
000001e0: c36c b1bc 1c82 023d 4aca a63d 0023 19bc
000001f0: 0e26 133d 89cb 55bd f932 8f3b b5b3 e13c
00000200: bf09 99bd 2ce7 aebc 3cfc a33b d84d 41bd
00000210: d3ca aebc 7d14 42bc f7e2 ee3c c6b5 e1bc
00000220: e5a1 bdbc cfa5 0d3e 3e3c 4fbd fd4f e53c
00000230: ab8d e83c 9ce4 1abd 25b7 d63c d4f7 12bd
00000240: d150 b93c 73b2 cdbc 741b e73c f3c8 abbc
00000250: c222 3cbd f169 fcbc 22ff b03c 4bf1 37bc
00000260: dff5 30bc 7779 d4bc bbd1 803b 54c0 2ebd
00000270: d06a 14bd 4aae d43c 63bc a2bc 3bea 44bd
00000280: fcc7 4bbd cde9 9cbb d7eb ea3c 338c aabc
00000290: abb7 123c 6d2d 053d e044 cdbd 9fb7 da3c
000002a0: 45e7 acbc 052b 893c 65a1 0d3d 4395 26bd
000002b0: 7cd4 e8bc 6429 50bd cb90 be3c 3d1f 79bd
000002c0: 334d 31bd d1bd d03c 1c93 9a3d f15f 28bd
000002d0: b76e 923c 26e4 e73c daf1 6abd 6b66 b33c
000002e0: f889 e2bc 5de7 3cbd e33b 163c 2b12 b3bb
000002f0: 6a7b 37bd be69 38bd 5368 2b39 bd0c 08bd
00000300: 70d9 58bd a6bb 4a3c 5e93 96bd 144f 9a3d
00000310: d899 a83c 4bd2 29bd 96e2 ac3c 651c 79bc
00000320: 724b 18bd d4f7 84bd b1c0 19bd 208c d8bc
00000330: 7310 793d 6a04 1fbc b1d6 febc 4480 debd
00000340: 3214 ae3c a68f 66bd bed6 1a3d 18d6 173a
00000350: 5b17 a6ba d669 623d 0ce8 223b 4cb2 833b
00000360: 1489 f2bb f547 fbbc f61e 0f3d e5fd fa3c
00000370: 62da 213c 62be 843c b746 16bd d63b eb3c
00000380: d0f7 29bd 05c6 81bd cd6d c83c d23d a2bd
00000390: 4b77 3d3c daaa 413d 6843 033d f4af b43b
000003a0: 7f2a ccbc c961 03bd 4125 44bd c76f 6d3c
000003b0: 10c8 993c 5f5d 94bc 5fa6 adbb 8795 9b3c
000003c0: d0c7 77bc 3498 eebc 2958 bf3c 90e6 b63c
000003d0: 250e 753d b164 333e ca4e 3bbd 7658 4bbd
000003e0: 44c9 f3bc ef12 de3c 8d08 483c cd58 a13c
000003f0: 8c8b c33c f8d8 463d 6621 42bd 7158 0b3d

linear3.bias f4 [4]
1.9873484 2.1050875 2.0034835 1.9518169
00000000: 6f61 fe3f c1b9 0640 1339 0040 23d5 f93f
