policy.pth (torch_old, 541473 bytes, 6 tensors)

linear1.weight f4 [400, 33]
00000000: dce4 3f3e 05ee d6be 68c3 2d3d 0fd7 a0bf
00000010: d389 3fbf b854 853e db40 cd3c 6304 27be
00000020: f0d3 843e 0eda 7bbd e5bc 153e f72d 50be
00000030: dbf7 873d da07 1ebf 27ff 8fbc 7560 84bc
00000040: 27c6 c83d 05b4 b7bf a6c9 0cbf a7ee 653f
00000050: e218 d03c 30d4 d53d 8519 9fbe 4914 313e
00000060: c83d 9cbd e4f0 2ebc cbbd 083f f2fe c53e
00000070: 9c81 42be 2c83 34bd d2b5 1dbf 4e03 1a3e
00000080: f9c5 8bbe f399 f9bd 705e 513e 05c2 4bbf
00000090: 394d d4bf 7e27 bf3f 1666 47bf 13a5 ab3e
000000a0: 268a 173e e5d4 773e 20ba 133e 2199 84bb
000000b0: 9d45 bcbe 2376 aabd 2718 07be 2a05 a43c
000000c0: 98d8 a13e 2246 71be bcc8 b43e b845 ac3f
000000d0: 1f75 07be 2030 4f3d 61cc 99be b76f ecbd
000000e0: 9491 9e3e 5b5a 833c eed7 fb3c f88a ef3c
000000f0: 90bb 6b3f bb8b d5bd 222e d3bd 121b 4abf
00000100: f0b6 c33d 036b cd3f 1418 c13e 6295 853e
00000110: 1ddc 433e a960 ab3e 061a 763f 35d8 12bf
00000120: e8aa 5e3e f27f 0f3e aa0e 4bbe 2474 413f
00000130: d7c1 91bb bd53 b33d a7c5 c0bb 3c12 34bf
00000140: 4f91 a13d d47d 0e3f 74bf 3d3f 84b2 03bf
00000150: 9d12 7b3e ac8e 06bf 7c5c 72be 793a 503e
00000160: 7952 e8bd b314 093e 5410 b03d 68f5 063e
00000170: 8681 013f 49ae 583e bab3 f1be 8244 e7bd
00000180: e718 74bd 8c3c 153d 5098 82bd bbfe 7a3d
00000190: b969 793f 1652 063f 367b 8c3c e2df a3bf
000001a0: f044 b3bf 7e4b 3cbf d05f 003e de97 163e
000001b0: 085a a3be 84d5 3fbe e4de e93e b02b dc3d
000001c0: ed2d 14be e78a 6f3e 1e84 9d3e 244c 0abf
000001d0: 57ed 233e 0d7f fa3e 3c55 25bf f0a2 02bf
000001e0: d8e0 39be 8d58 fc3c 17f1 aebe e040 06bd
000001f0: c6ba ff3d f416 223e 0685 083f fb63 66be
00000200: 5e70 79bd c233 38bf acab 17bd 55f8 5cbe
00000210: 7595 c0be dba3 dd3e 1984 023e 60a7 eebd
00000220: c1ff 9dbe 2b1f 8a3e 8661 58be 4de3 8cbd
00000230: 5dfa ff3d 7437 e4be a3e4 a7bc 9755 b43d
00000240: fbd1 ffbd 629c 6b3d 3c84 033f b545 453f
00000250: 572b ba3e a251 a9bf f4bd 033e 25bd 5e3f
00000260: 7150 183e 96a2 083e 3a07 d23e 36ba 89bc
00000270: d0a4 873e 5c60 853e 7c68 5b3e ded1 653f
00000280: d1a6 31be 28ff 0bbd 49f0 8fbf 9ee9 19be
00000290: 340b 343d 4474 88be cbc2 87bd 8406 523f
000002a0: 6d01 1fbf 4684 703e 7cb1 993f 9440 0b3f
000002b0: 2f55 9a3e a8e4 743e 4626 36be 236e d0bd
000002c0: 895a a9be e9e7 013d 8393 a83e 6734 c13d
000002d0: 0a8d d1be fa91 6abf 0b94 e2bd da37 3fbe
000002e0: 15a9 6d3f 34ed 9f3e c18b 1ebe 62ed 073b
000002f0: e8db 0bbf f5d0 a1bd 7f96 74bd c6c5 37be
00000300: e66c 073f 362e e3bd 1a51 fbbd 7464 3fbf
00000310: afbd cfbd 7d33 2b3e 0471 2cbd dac9 b2bd
00000320: 0830 d73d 2095 623f e70c 5a3e ccf2 efbd
00000330: cdd6 10bf 8df2 c3be b65d d4bc 120b 003f
00000340: 0599 ec3d b81c 0ebe dfe6 583e 4bde 64be
00000350: d55a 1b3e c573 a7be 32cf e23f d41e 1040
00000360: 4f70 79bf 0f44 e2be d27b 7d3e f745 23bd
00000370: 81b0 a53d 7905 743e 8bcf 00be df73 15be
00000380: 60e2 6ab7 21b1 233f 6a17 a13d c866 4abd
00000390: 6391 1cbf e02d d3bc 0e29 e93e 89e5 2b3e
000003a0: 408c 2f3f 49a8 f7be 10d9 523e 82dc 8dbe
000003b0: 5976 113f 9ad8 cabd a415 b9bc 97d5 a33d
000003c0: 3010 283e c628 5e3e 30d4 0d3e 02c5 61be
000003d0: 7791 dcbd 0295 eebe 58da e73e 0b0b 39bf
000003e0: 717c ee3e d685 22bf d9f9 bd3e 424c 883d
000003f0: 6d7e 8e3e a258 babe d396 793c a519 a1be
0.18739647 -0.4197847 0.042422682 -1.2565631 -0.7481968 0.26041198 0.02505534 -0.16310267
0.25942945 -0.06148725 0.14622839 -0.20330034 0.066390716 -0.6173073 -0.01757772 -0.016159276
0.098034196 -1.4351813 -0.5499519 0.8981728 0.02540249 0.10440862 -0.31074157 0.17292894
-0.07628971 -0.01067755 0.534146 0.3867107 -0.18994755 -0.044070408 -0.6160556 0.15040323
-0.2729948 -0.121875666 0.20446181 -0.79592925 -1.6586066 1.4933927 -0.77890146 0.3352438
0.14798793 0.24202307 0.1442647 -0.0040465747 -0.3677186 -0.08323314 -0.13192807 0.020021994
0.3161056 -0.2356191 0.35309398 1.3458776 -0.13228272 0.050583005 -0.3003874 -0.115447454
0.30970442 0.016034296 0.030742612 0.02924107 0.9208307 -0.10427042 -0.103115335 -0.78947556
0.09556377 1.6048282 0.37713683 0.26090533 0.19126935 0.33472183 0.9613346 -0.57361156
0.21744883 0.14013651 -0.19829813 0.7556784 -0.0044481563 0.08756206 -0.005882937 -0.70340323
0.078890435 0.5566075 0.7412026 -0.5144427 0.24518819 -0.5256145 -0.23668092 0.20334806
-0.113438554 0.13386802 0.08596864 0.13179553 0.5058826 0.21160235 -0.47207433 -0.11292364
-0.05959406 0.036434695 -0.063767076 0.061278086 0.97426945 0.52469003 0.017148595 -1.2802699
-1.4005413 -0.7355269 0.1253655 0.1470637 -0.31904626 -0.18733793 0.45677865 0.1075052
-0.14470644 0.23392831 0.3076486 -0.5402243 0.16008507 0.48925057 -0.6458318 -0.5102987
-0.18152177 0.030803943 -0.34168312 -0.032776713 0.12486796 0.15829068 0.5332798 -0.22499077
-0.060898177 -0.71953976 -0.037028953 -0.21579106 -0.37614027 0.43289074 0.12745704 -0.11653018
-0.30859187 0.26976904 -0.21130952 -0.06879292 0.12498925 -0.44573557 -0.020494765 0.088053875
-0.124912225 0.057522185 0.5137365 0.7705949 0.3636119 -1.3228037 0.1286543 0.8700736
0.14874436 0.13343272 0.41021138 -0.016812425 0.2649293 0.2605008 0.21426576 0.89773357
-0.17348792 -0.034178883 -1.1245204 -0.15030524 0.043955997 -0.26651204 -0.06628951 0.8204119
-0.6211155 0.23487958 1.2007289 0.54395413 0.30143115 0.2391535 -0.17788038 -0.10177257
-0.33076885 0.031715307 0.32925043 0.09433823 -0.40927917 -0.9162899 -0.11063393 -0.1867365
0.92836124 0.3123566 -0.15483 0.0020740856 -0.54632425 -0.079011835 -0.059713837 -0.17946538
0.5290054 -0.110927984 -0.12271328 -0.74762654 -0.10143601 0.1671886 -0.042099968 -0.087299064
0.10507208 0.88508797 0.21293984 -0.11716232 -0.5657776 -0.3827099 -0.025923591 0.5001689
0.11552624 -0.13878143 0.2118182 -0.22350423 0.15171368 -0.32705513 1.7719481 2.2518816
-0.97436994 -0.4419255 0.24754265 -0.039861646 0.08090306 0.23830213 -0.12579171 -0.14594983
-1.4000194e-05 0.6394215 0.07865794 -0.049414426 -0.6115934 -0.02577871 0.45539135 0.1678678
0.6857338 -0.4837058 0.20590615 -0.27707297 0.5682121 -0.09904595 -0.022593327 0.079997234
0.16412425 0.21695241 0.13850474 -0.22047809 -0.10769933 -0.4659806 0.4528377 -0.72282475
0.46579316 -0.6348547 0.3710468 0.0665517 0.2783083 -0.36395746 0.015233713 -0.31464878

linear1.bias f4 [400]
00000000: 02ef 20bf 8ff3 69bf 590e bc3c f49a 0cbf
00000010: 61e3 8ebf 506f 4ebf 7eee 33bf a09a 15bf
00000020: 5886 bfbe bc9b 5cbf b9fa 03bf 27ef 49bf
00000030: eee3 77bf 8ddb 99bf a379 75bf 1e8d 1cbf
00000040: baf6 7fbf 135a 40bf ef39 69bf 0673 9bbe
00000050: 0440 a1bf 38cf 27bf 4ecf 20bf 87e3 d8be
00000060: 58f3 80bf b021 32be 0f86 92bf 1f99 cfbe
00000070: aa1a cebe 05c0 68bf a2ac 46be 6294 73be
00000080: 031e 73be 4b50 5ebf 820a 84bf 7555 f2be
00000090: 673b 76bf a911 16be b977 0abe 21c2 16bf
000000a0: 4fbc 1cbf cfbb cabe bc5c 40bf 3419 77bf
000000b0: 962f ecbe 540e 34bf e0a3 2dbf ae8c 3fbf
000000c0: a9a2 6ebf ceef 58bf 881e 5fbe dfcc 05bf
000000d0: 3db9 bebe 9ab9 3bbf 105d 36bf 238d 9abe
000000e0: 4a89 27bf 33c0 77bf 54f4 45bf e6f6 5fbf
000000f0: 04c2 8fbf 56d0 f9be efef 88bf 0717 5dbf
00000100: 8b3a 81bf af44 2fbf 00e6 2bbf f56a 47bf
00000110: d26b 11bc cabd 04bf a494 06bf 0e90 cbbe
00000120: ecf0 5dbf 886f 59be c896 d3be 4012 21bd
00000130: 2fee 2cbf 7af4 5abf f42c 2cbf f0a3 97be
00000140: 97fe 68bf 9e44 b1be e672 64bf 0276 1bbf
00000150: 4346 1bbe 1ae4 0fbf 7c79 c5be ea9b 56bf
00000160: b188 04bf f246 4fbf 5c30 bebe f4f5 a0be
00000170: e286 47bf 7d96 0abf 3f2b 19bf edf4 77bf
00000180: fae1 e3be 3aa4 03bf f784 07bf 5e2f 3fbf
00000190: 0c98 51bf 498a 5fbf 3d2c 21bf 0598 73bf
000001a0: 123b dfbe 71fc 72be 1d75 95be 09a9 51bf
000001b0: 1715 1dbf bb1e 00bf 7fac 78bf a89c d0be
000001c0: 3a64 36bf c352 40bf 9043 bfbe f218 2abf
000001d0: 3dba 69bf 6c35 12bf 3386 24bf b99e 0bbf
000001e0: 34d3 62bf 2122 6ebf fc91 f4be 8e2a b0be
000001f0: 0208 4cbf 8068 c4be aea2 3bbf 9010 9cbe
00000200: 2ab5 25bf 8c8f 44bf 8a6a a5bf ea7f 0dbf
00000210: 8aa8 bdbe 00a6 2fbe 8aab 90bf 60fe 16bf
00000220: 042f 5fbf 6bde 20bf 1812 0fbf 8956 86bf
00000230: 631b 19bf bd5d 79bf 4e09 1fbf 2f03 00bf
00000240: 1972 22bf a07b 04bf b010 67bf 4feb 3fbf
00000250: e5e8 43bf 5e97 4ebf 4eb0 58bf 9ac8 a1be
00000260: 51cd 28bf 5243 43bf 87da 22bf ec22 87bf
00000270: 4147 0abf 66d8 87bf 69fc 27bf d4de 4cbf
00000280: 50eb 38bf 1165 12bf aeff b8be 9e1a 1e3d
00000290: 5de6 2abf c67c 1cbf dae3 38bf 6e45 08be
000002a0: 41e8 2bbf 1c55 0ebf 8ab6 0bbf 9b19 84bf
000002b0: 3cfd 87be bd26 4cbf aa0f 32bf d9a5 f2be
000002c0: a1c2 4dbf 33f6 5ebf deba d2be 7c09 cbbe
000002d0: 189e 1abf 537b 40bf 40b8 88bf 8638 6ebf
000002e0: f91c 7ebf 0a1a 8dbf c216 bebe 8aee 91bf
000002f0: e3c5 a0be 61e2 83be d9d0 f6be 3db6 29bf
00000300: 0d12 89bf c941 17bf 8099 f0be 325b b8be
00000310: 3f74 1dbf cddb 69be 7872 4bbf e38d 3abf
00000320: 7840 67bf 4f2e 11bf ba6b 94bf 06c0 3fbf
00000330: a667 48bf 0ae1 35bf cfbd 12bf 3794 27bf
00000340: 9ed8 c6be 68a2 3fbf 6be0 efbe 272f ebbe
00000350: 6f94 8dbf 4208 62bf dcba cdbe 66a6 75bf
00000360: f5f7 a3be b1c7 5dbf 77d6 f1be f5e2 a7be
00000370: 78f8 59bf b422 33bf 205e 0bbf 6fb4 2ebf
00000380: 7406 e4be 112c 0cbf 8175 41bf 9a5b 47bf
00000390: 0efc c4be b1f6 36bf ec5a 0cbf abf5 65bf
000003a0: 6f2c 1abf edad 1ebf 5fb1 17bf aa3b 273d
000003b0: 05c2 7ebf d22f 2ebf d3f6 51bf 47ca 51bf
000003c0: cf39 0bbf 03ce 72bf 5565 1abf da9a 45bf
000003d0: f7db 40bf 9308 6dbf a1bf 03bf b112 33bf
000003e0: fa4d 46bf 8d8c 63bf 6766 04bf bf12 a1be
000003f0: 1d78 88be 392d 7bbf 0a8a c3bd 3718 75bf
-0.62864697 -0.91387266 0.02295606 -0.5492394 -1.116314 -0.806386 -0.70285785 -0.58439064
-0.37407184 -0.8617513 -0.5155445 -0.7888054 -0.9683217 -1.2020127 -0.9588873 -0.6115283
-0.9998585 -0.7513744 -0.91104025 -0.30361193 -1.2597661 -0.65550566 -0.6281632 -0.4236109
-1.0074263 -0.17395663 -1.1447161 -0.4054651 -0.40254718 -0.90918 -0.19401792 -0.23787072
-0.23741917 -0.8684127 -1.0315707 -0.47330824 -0.9618439 -0.14655174 -0.13522233 -0.5888997
-0.61224836 -0.39596412 -0.751415 -0.9652283 -0.46130055 -0.70334363 -0.6782818 -0.74824035
-0.9321695 -0.8474091 -0.2178899 -0.52265733 -0.372507 -0.7333008 -0.7123575 -0.30185804
-0.6544386 -0.9677765 -0.7732594 -0.8748611 -1.1231084 -0.4879176 -1.0698222 -0.8636326
-1.0095991 -0.6846418 -0.6714783 -0.7789758 -0.008875804 -0.51852095 -0.5257056 -0.39758343
-0.8669574 -0.21233952 -0.41325974 -0.039324045 -0.6755094 -0.8552929 -0.67256093 -0.29617262
-0.91013473 -0.34622663 -0.8923782 -0.6072694 -0.15163521 -0.5620743 -0.38569248 -0.83831656
-0.51771075 -0.8096763 -0.3714627 -0.31437647 -0.7794019 -0.54135877 -0.59831613 -0.968581
-0.44508344 -0.51422465 -0.52937263 -0.7468165 -0.8187263 -0.8732038 -0.6295813 -0.9515384
-0.43599755 -0.23729111 -0.29190913 -0.8189855 -0.61360306 -0.5004689 -0.9713821 -0.4074452
-0.71246684 -0.75126284 -0.37356234 -0.66444314 -0.912998 -0.57112765 -0.6426727 -0.54539067
-0.8860352 -0.93020827 -0.47767627 -0.34407467 -0.7969972 -0.38360977 -0.73295105 -0.30481386
-0.6472956 -0.76781535 -1.2923138 -0.55273306 -0.37042648 -0.17153168 -1.130235 -0.58981895
-0.87181115 -0.6283938 -0.55886984 -1.0495158 -0.59807414 -0.9740866 -0.6212357 -0.5000486
-0.6345535 -0.51751137 -0.9025984 -0.7496843 -0.76527244 -0.8069972 -0.8464402 -0.3159836
-0.6593829 -0.762746 -0.63614696 -1.0557532 -0.54014975 -1.0612915 -0.6561952 -0.8002751
-0.7223406 -0.57185465 -0.36132568 0.038599603 -0.66757756 -0.6112789 -0.72222674 -0.13307735
-0.67151266 -0.55598617 -0.5457541 -1.0320314 -0.2656039 -0.7974661 -0.6955515 -0.47392157
-0.80375105 -0.8709442 -0.41158193 -0.39655674 -0.6039748 -0.7518818 -1.0681229 -0.93055
-0.9926296 -1.1023571 -0.37126738 -1.1400921 -0.31400976 -0.2575865 -0.48206213 -0.662937
-1.0708634 -0.59084755 -0.4699211 -0.36007077 -0.615055 -0.22837754 -0.7947154 -0.7287275
-0.90332747 -0.56711286 -1.1595376 -0.7490238 -0.78283155 -0.7104651 -0.57320875 -0.6546053
-0.3883714 -0.7485719 -0.46850905 -0.45934412 -1.1060923 -0.8829385 -0.40181625 -0.9595703
-0.32025114 -0.8663283 -0.47233936 -0.32790342 -0.8514476 -0.6997483 -0.544405 -0.6824407
-0.44536173 -0.5475474 -0.7556992 -0.7787415 -0.38473552 -0.7147017 -0.54826236 -0.89827985
-0.6022405 -0.6198414 -0.5925502 0.040828384 -0.995148 -0.6804172 -0.8201725 -0.81949276
-0.54385084 -0.948456 -0.6031087 -0.7718941 -0.7533564 -0.9259121 -0.5146428 -0.69950396
-0.7746273 -0.8888634 -0.51718754 -0.31459615 -0.2665414 -0.9811588 -0.09547813 -0.95740074

linear2.weight f4 [300, 400]
00000000: 4870 00bf 70d3 0b3f 0c8a 133a f61b c0be
00000010: 520d a4be f990 903d 4b24 86be 2195 88bd
00000020: 631c 59bf 11e3 0c3e 1535 f13d 2260 f4be
00000030: 7dbe 15bf 6556 d23e e8e6 afbd 26a6 2abe
00000040: 0856 f33d 24e1 8c3d 0f45 da3e ed54 4ebe
00000050: 75d9 8ebe bb93 14be 7991 0c3d f7bf c3bd
00000060: 5c12 123f 2e0d a7be 94d7 7bbe 9d03 72bf
00000070: f17f ca3d 0bda 97bd cf92 9fbe a060 a1bd
00000080: ca2a adbe 611c bf3d 664e d4be 42d5 403e
00000090: 27ff dd3e 2012 12bf d67f 24bd 52f8 973e
000000a0: 861e 6ebe f1c6 8c3d b8cd 91be c449 373e
000000b0: b15f f5be 2f38 c9be f14a 813e 65c3 67be
000000c0: 98bd 90be 0be0 de3d a428 9abe 013b a1bd
000000d0: 213e b9bd 3ccd 1abf 04db 26bf 48c3 2d3e
000000e0: 91da d73e 3504 3abf 7888 8b3e 409c 0fbe
000000f0: f88e c0be 3eb2 81be 6522 0dbe 5aa3 243d
00000100: e889 d7be 09c9 733d 014d df3e 5197 a23d
00000110: 5e39 be3e a4ad 323e 6758 02be c2ab a2be
00000120: ac69 523e a18f f53d 2900 3e3e 6ae4 013f
00000130: 759b 6f3e 4589 1c3d c9c1 8f3e 1e2a 4c3e
00000140: aa44 023f 0e21 573e ddaf 683c f833 a4bd
00000150: bab8 2abe 1875 013f 75b6 8a3e 23bf cd3e
00000160: 2826 523e 15cf 2fbe ce7b b73e cb11 093d
00000170: 19ac 523e 434f e4be cda4 b13c 51ea 01bf
00000180: 0b16 73be beb7 29bf 6e17 c6be 377c a9be
00000190: 4353 bbbe 8ad1 963c 5294 8f3e 06a1 1abd
000001a0: 4a29 89be 48c8 21be b60e 2cbf 689f 4fbd
000001b0: a099 083f f81f 66bf cca7 d93e 697b d4bd
000001c0: 689b 6d3e 0d17 ca3c 9052 663e f8db cbbe
000001d0: 887a 163c dba3 de3d bf11 633e 6657 963d
000001e0: efb4 9bbe a9c2 c1be e7d0 05be 4d6c 0fbe
000001f0: f29f 163c fb25 90bf 568b 983d 4b8e c63c
00000200: 326f 14bf 7f0b a7bc 47d9 31be 5578 e03d
00000210: 33c9 34bc 090a 143b 5a34 a03e 5817 e6be
00000220: 40c4 90be 4578 e1be 6849 c8bc 2851 5ebe
00000230: bba8 e5be 8c77 173f 9636 0ebf a1e0 38bd
00000240: f8af 193e e6b7 943e b0d2 86be 15b1 063e
00000250: 924f d2be 7649 14bf 3dc0 c7bd 28cc 0b3e
00000260: c44b ec3c 14c0 a93e 921f f8be 2b58 ce3d
00000270: 61ba 38bd 1d74 873e 59e6 a5be c745 c3be
00000280: 3032 0e3f 9158 04be 0292 433d 24aa 0cbf
00000290: 8c7c e33d 244a abbd e82f f8be a7fe 8cbd
000002a0: 7f5a 05bf 1bae 4bbe 7449 b83e eda5 19bf
000002b0: 97d7 1dbf b182 8dbd 3d10 b13e 2aed 83be
000002c0: 72bb 093e 25c9 193e a73c 25bc e465 013e
000002d0: a121 7c3e 7aa8 723e b107 d5bd 920d babe
000002e0: 9fd6 cdbe 9069 103f c015 51be 3744 183f
000002f0: 79f2 743e 69f1 e8be 6188 38bf 1ead a2be
00000300: ac6b 0fbf 1232 8b3d 7fd5 15bf 7b55 c7be
00000310: 668e e8be df21 10be 9f20 d5be b290 883e
00000320: 2d5c d5be 3abd 9dbc c29b 0f3f 9739 4cbe
00000330: 0cef 20be c21b cfbd 5578 e43d 138d 3b3e
00000340: 6e95 ad3e a799 69be 9faa 9cbd 938e f13d
00000350: e41e 103b 2192 ddbd 3138 ec3d 99b0 33bd
00000360: 8566 9dbc bce4 243e 25dd 9dbe 83f6 3dbf
00000370: 930b 59be f98b 2bbe 737d 06bd 89c5 073f
00000380: 95d9 08bf de31 b3bd 470f 94bd 866b b1be
00000390: 0e9b 803e 4e4f da3d 7a3a 8e3d 6ea5 e8be
000003a0: 0bf6 733e 5932 75be f343 41bf b17f a9be
000003b0: d682 b63d 68d8 f8bd 4d5a 343d 0f37 443e
000003c0: 0674 8dbe 54ee d6be 0c9f 8cbe 634b ffbe
000003d0: 381a b73e f912 143d 8851 d23c c234 0f3c
000003e0: ee35 1a3d ab93 aebd 6adc 753e 295a 42be
000003f0: 909d 31be 7488 313e 12f6 f1bd b34f 3cbe
-0.5017133 0.54619503 0.00056281756 -0.37521333 -0.32041413 0.07058901 -0.26199564 -0.06669069
-0.8480894 0.13758494 0.11777703 -0.47729594 -0.5849379 0.4108154 -0.08588964 -0.16664943
0.118816435 0.0687888 0.42630813 -0.20149584 -0.27900282 -0.1450948 0.03431842 -0.09558099
0.57059264 -0.32627243 -0.24593955 -0.94536763 0.09887684 -0.07414635 -0.31166694 -0.07879758
-0.33821708 0.09331585 -0.41466063 0.18831351 0.43358728 -0.57058907 -0.040160976 0.2968164
-0.23253831 0.068738826 -0.28477263 0.17899233 -0.4792457 -0.39300677 0.25252488 -0.22633131
-0.2826965 0.108825766 -0.3010913 -0.07872582 -0.09045053 -0.6046941 -0.6517794 0.16969025
0.4215894 -0.7266267 0.27252555 -0.14024448 -0.37609076 -0.253313 -0.13782652 0.040194847
-0.42097402 0.059517894 0.43613437 0.079390176 0.37153143 0.17449051 -0.12729035 -0.31771666
0.20548123 0.11990286 0.18554749 0.5073916 0.23399146 0.038216848 0.28077534 0.19937941
0.50886023 0.21008703 0.014202085 -0.08017725 -0.1667203 0.50569296 0.2709233 0.40184888
0.20522368 -0.1716884 0.35836643 0.033464234 0.20573463 -0.44591722 0.021685028 -0.50748163
-0.23738877 -0.66295993 -0.3868975 -0.3310258 -0.3658696 0.018410463 0.28042847 -0.03775122
-0.26789314 -0.15799057 -0.6720995 -0.05068913 0.53359413 -0.8989253 0.4251083 -0.10375101
0.23203814 0.024669195 0.22492433 -0.3981626 0.009184487 0.10871097 0.22174738 0.07340889
-0.3041148 -0.37843826 -0.13067971 -0.14006157 0.009193407 -1.1261591 0.07448451 0.024237772
-0.5798217 -0.020391224 -0.17368041 0.109604515 -0.011034298 0.002258899 0.3128994 -0.44939685
-0.28274727 -0.4403707 -0.024449065 -0.21710646 -0.44855294 0.5916679 -0.5555204 -0.045136098
0.15008533 0.29046553 -0.26332617 0.13153489 -0.41076332 -0.5792459 -0.097534634 0.13652098
0.028844722 0.33154356 -0.48461586 0.100754105 -0.04509962 0.26455775 -0.32402304 -0.38139173
0.5554533 -0.1292441 0.047746666 -0.54947114 0.1110774 -0.083637506 -0.4847405 -0.068845086
-0.5209121 -0.19890635 0.3599354 -0.6001881 -0.6165709 -0.06909693 0.345827 -0.2576688
0.13450411 0.15018137 -0.010085261 0.12636524 0.24622203 0.23697081 -0.10401858 -0.36338478
-0.40202805 0.56411076 -0.20418453 0.5947909 0.23920621 -0.4549668 -0.720831 -0.31772703
-0.5602367 0.067966595 -0.58528894 -0.38932404 -0.4542114 -0.14075421 -0.4162645 0.26672894
-0.41671887 -0.01925527 0.5609704 -0.19943844 -0.15716189 -0.10112716 0.11155764 0.18315534
0.33903068 -0.2281252 -0.07649731 0.11794772 0.0021991068 -0.108188875 0.11534155 -0.04386959
-0.019213924 0.1610288 -0.30832782 -0.7420427 -0.21195821 -0.16752614 -0.03283448 0.5303579
-0.53457004 -0.08749746 -0.072294764 -0.34652346 0.25118297 0.106596574 0.06944747 -0.45438713
0.23824327 -0.23944987 -0.7549431 -0.33105233 0.08911674 -0.12150651 0.04403143 0.19161628
-0.2762758 -0.41978705 -0.27465093 -0.49862203 0.3576219 0.036150906 0.025673643 0.008740606
0.037649088 -0.08524259 0.24009863 -0.18979706 -0.17345262 0.17337209 -0.11814512 -0.18389778

linear2.bias f4 [300]
00000000: 755c d8bd 57da d7be d4db 75bd 8d92 123d
00000010: 51f2 3cbe 2c85 adbe 9428 ca3d 8f8d 213e
00000020: 9a70 96be 5b5d 93be 922c 9ebe a8ad 31be
00000030: d68e 49bd cb51 09bd 3ddc 58be ce10 d1be
00000040: de1f a4be 82d2 3cbe 980b 81be 27c5 e8be
00000050: 044b bc3d 1e06 70bd 68cf 99bd 00d9 cbbe
00000060: c4c0 bebe 2b3b 24be 5ff0 b7be 55b1 32bf
00000070: 7c4b 0bbd 4c95 78bf caef cdbe 93e2 97be
00000080: d1e0 70be d1ce 53be ece3 65be c2c8 81be
00000090: 398c f4be 5c75 4d3d ada1 c5be 48c9 6f3e
000000a0: f1a2 1cbc e88d 0cbe 7f2f eabd 1a5a 00be
000000b0: 2380 f8bd 1533 84be 9da0 9ebd bbee 91be
000000c0: f049 f0bc 5a8d 2fbd 4cee 233d a081 e33c
000000d0: 370f 8fbe ee46 903d c711 6ebe 12c2 a33d
000000e0: 2eb3 51be cb3b 77be a48d 78bb 3196 8d3e
000000f0: 05bd 033c 3668 6fbc 1a9b b4be e273 63be
00000100: 79cf 473d eff3 1fbd 0bd5 69bd f498 35be
00000110: bc83 29bd 3f69 2ebd 7b52 06bf fb3d bfbd
00000120: 45be 49be f2e1 d03d a02a a53d 1b40 85be
00000130: 2886 0bbe 6ff7 09be 4d85 5ebd 3c48 24be
00000140: 0c71 d0be 3b56 c5be 504c 51be c360 c2be
00000150: 76e2 53be 8110 72bd 549c cebe 804a e3be
00000160: e743 87be 4387 cfbd 6494 a3be 4e4f c6be
00000170: de7d dbbe 5f45 a7be a097 ecbd 264a 01bd
00000180: ee65 963c 8d3d 29bf 8ebd 9abe 612a bcbd
00000190: 7b4e f4bd 90d1 43be 55eb 13bf cf11 45be
000001a0: 5e9a 76be f1e8 a03c 9a09 9abd dc36 6bbe
000001b0: 9b7e 82bd 2ff0 23bf 4cbc adbc 7d41 21bf
000001c0: d458 303b 7ce8 58be da57 a1bd 6c6c 603c
000001d0: 7850 c5bd 10db 91be 81b1 b13d 3d84 19be
000001e0: b8d3 1bbf 21dc 4d3b 7210 f6be 7292 54bd
000001f0: 7f0c cbbd 7f26 d4bd 1005 2fbd 7a16 143e
00000200: a2bb 33bc 9bb3 babe 2d0e 75be 89fe efbe
00000210: e8c9 57be 7200 f4be 968f 57bc fd01 61be
00000220: 72d5 babe 8b39 a7bd bded 83be 02da 76bd
00000230: a073 41be e9aa 833e 3dcd 56bd a33c 5fbe
00000240: 5144 80bd 1547 48be 58e9 21bd 318a 013d
00000250: e64b 3abe 04b9 a5be 0685 98be b472 e2be
00000260: 79ef b0be d662 09bd 1c88 1dbe 285d 24be
00000270: c5f2 46be 640f 01be 2f28 d1bd 127b babc
00000280: 381b 04bd 0c9c cbbe 8598 77bd ac95 bfbe
00000290: f8e3 5abe 0048 dcbd 06d7 35be 7fa7 a7be
000002a0: cddf 24bc a2b6 60be 3c44 f7bd 536a 14be
000002b0: 25d3 943d becf d6be ebbf 88bd f327 76be
000002c0: 75ce 933e 07bc 14be 4acb 323e ae47 a3be
000002d0: 0071 77be 5959 d9bd 9e3a 683d 1851 8fbe
000002e0: 5cc1 603e fe12 98bd 2058 193e 3988 f5be
000002f0: ca51 debe 6408 6e3d 4d4b 95bd b8b0 a03c
00000300: 7215 30bf 5e93 c4bd 203e 6dbd 6385 7fbe
00000310: 0f36 9dbd fb15 65be 878c 8bbe c7b3 073c
00000320: c70d cebe 1154 4abe 6fc4 83be d11c fbbc
00000330: 96e2 3f3d d7a1 60bd 0093 bcbe ddf0 abbe
00000340: 7c34 a4be a98c 35be fef9 cabe 345e 0cbc
00000350: 39df 1fbe 4414 233e 33cb a3be 698d 9ebe
00000360: 33b3 31be f585 24bf 2aee a1be 64bd 33bc
00000370: 3fdf b83d 02e4 9bbe f7b0 81be 3c34 b83e
00000380: 2a73 a1bd b8fc bcbe a0a7 44be f223 523e
00000390: 5207 9a3c b398 ffbd ebeb 473e cbca 88bc
000003a0: b4a5 72be 3555 b1be 1b11 3bbe c226 01bf
000003b0: 90bb ae3c be80 a2be 6ba5 573e c41a 99be
000003c0: 5451 1fbe 502a a7be b262 73be 7195 b5bd
000003d0: 8f50 30be f33d 37bf fc38 53be bab8 c8bc
000003e0: fa74 7d3d f614 3cbe 9e42 33be ffb1 95be
000003f0: 9997 d7be c3e6 b2be 9bdd 3bbe 56b7 afbe
-0.1056451 -0.42158768 -0.060024098 0.035784293 -0.18451811 -0.33890665 0.09871021 0.15776657
-0.29382783 -0.28782162 -0.3089338 -0.17351401 -0.049208485 -0.03352527 -0.21177764 -0.40833133
-0.32055563 -0.18439677 -0.25204158 -0.45462915 0.091939956 -0.058599584 -0.07510263 -0.39813995
-0.37256444 -0.16038196 -0.35925576 -0.6980184 -0.034007534 -0.9710281 -0.40222007 -0.2966505
-0.2352326 -0.20684363 -0.22450227 -0.2534848 -0.4776323 0.05016075 -0.3859991 0.23416626
-0.009560333 -0.13726008 -0.114348404 -0.12534371 -0.12133815 -0.25820222 -0.07745478 -0.2850245
-0.029332131 -0.042859413 0.04002218 0.027771771 -0.27941296 0.07044779 -0.23248969 0.07996
-0.20478508 -0.24143903 -0.0037926221 0.2765365 0.008040671 -0.014612248 -0.35274583 -0.22212175
0.048781846 -0.039050993 -0.05708794 -0.17734128 -0.041385397 -0.04258084 -0.52469605 -0.09337994
-0.19701488 0.10199346 0.08064771 -0.2602547 -0.13625395 -0.13473295 -0.054326344 -0.1604318
-0.40711248 -0.3854235 -0.20439267 -0.37964448 -0.20691857 -0.05909777 -0.40353644 -0.44392776
-0.26418993 -0.10133221 -0.3194915 -0.3873238 -0.42869467 -0.32670113 -0.11552358 -0.031564854
0.01835915 -0.66109544 -0.30222744 -0.09187771 -0.119290315 -0.1912291 -0.57780963 -0.19245075
-0.24082324 0.019642325 -0.075213626 -0.22970146 -0.06371804 -0.64038366 -0.021207951 -0.6299055
0.0026908414 -0.21182436 -0.078780845 0.013697725 -0.09634489 -0.28487444 0.08676434 -0.14991851
-0.6086993 0.0031411725 -0.48059422 -0.051897474 -0.09914493 -0.10358905 -0.042729437 0.14461699
-0.010970028 -0.36465153 -0.23931189 -0.46873882 -0.21073115 -0.4765659 -0.013156792 -0.21973415
-0.3649097 -0.08165272 -0.25767317 -0.060266502 -0.18891764 0.25716332 -0.052441824 -0.21800475
-0.0626303 -0.19558366 -0.039529175 0.03162593 -0.18193015 -0.32367718 -0.2978899 -0.44228137
-0.34557703 -0.033541523 -0.15383953 -0.16051161 -0.19428547 -0.12603527 -0.102127425 -0.022763763
-0.03225252 -0.39767492 -0.06044819 -0.37418878 -0.21376026 -0.107559204 -0.17757806 -0.32744977
-0.010063124 -0.21944669 -0.120735615 -0.14493684 0.07266835 -0.4195537 -0.066772304 -0.24038677
0.28868452 -0.14524852 0.17460361 -0.31890625 -0.241642 -0.10612745 0.056696527 -0.27991557
0.21948761 -0.074254975 0.14975023 -0.47955492 -0.43421775 0.05811347 -0.07289753 0.019615516
-0.6878272 -0.095984206 -0.057920575 -0.24953227 -0.076763265 -0.22371666 -0.2725565 0.008282608
-0.40244886 -0.19758631 -0.25735804 -0.03065339 0.04684695 -0.054841843 -0.36830902 -0.33582202
-0.32071292 -0.17729439 -0.39643854 -0.008567382 -0.15612496 0.159257 -0.31990966 -0.30967262
-0.17353515 -0.642669 -0.31627017 -0.010970447 0.09026956 -0.30447394 -0.25330326 0.35977352
-0.07883294 -0.3691156 -0.19204569 0.20521525 0.018802319 -0.12480297 0.1952359 -0.016698262
-0.23696023 -0.3463532 -0.18268244 -0.50449765 0.021329671 -0.31738847 0.21059196 -0.29903233
-0.15558368 -0.3264947 -0.23768118 -0.08866394 -0.1721823 -0.715789 -0.20627207 -0.024502147
0.061879136 -0.18367371 -0.17505881 -0.29237363 -0.42107847 -0.34941682 -0.18346255 -0.34319562

linear3.weight f4 [4, 300]
00000000: 799f 273e 4fd7 ee3e f597 6fbe 61b7 afbd
00000010: 3808 4f3e eaf7 a2be b482 bdbe 3e76 ed3e
00000020: 3f60 1bbe 3110 bd3e da08 b1bb f9ea aa3d
00000030: 402e 47bc ff3f 453d 4847 093d 4e86 0abe
00000040: 9441 81be 1ac3 c3bd a1a8 ddbc 0ae1 31bd
00000050: ab57 fcbc ed41 413e 5484 6f3d 1699 0abe
00000060: c37a d23e 1206 b4bd 1d65 c0bd 8eb4 63bd
00000070: db0c 543e ee89 683e d525 8bba 368e 603e
00000080: 8a75 f8bd 6c06 193e 58db 933d d76b 34bd
00000090: 4eb9 60bf 77c6 0dbe 27f9 df3d 8478 193e
000000a0: 2913 0a3d 7e13 d0be 621a 0e3f b9d4 91be
000000b0: 3eeb 173e 49b0 10bf d5b2 193e 20a9 413e
000000c0: 3c48 fd3d 348d bcbb 1ef8 e43e 1a83 1dbe
000000d0: 4186 a23e dfae 41be d8c5 bfbd c1df 09bf
000000e0: 61a9 2f3e e548 d33e 324b fc3d 41cd 1cbf
000000f0: 7ff3 703d 145d eebd ab74 07bf 990a 903e
00000100: a50f cabe 58df 7fbd 090a d33d 1cc8 a0bc
00000110: c984 653c 4fcd 363b 268b aabd 61d4 da3d
00000120: 0158 433b c56a 54be 1fac 0f3d 8d64 cbbd
00000130: 2646 74bf c489 ffbe b5e1 ad3c 6e62 363d
00000140: 9a94 96be 4122 943e 864e 033e 9c5e 0fbf
00000150: 077d 11be d77e 48bc f44a b7be df21 34bd
00000160: 0a6c 933c a223 4e3e bc10 853d cbb2 9b3e
00000170: 5cff e3be 5ac2 50bc 67a0 2fbe 47e5 e23c
00000180: 2e47 e4be 8071 873f 74f3 4dbe 2d80 bd3e
00000190: dc55 e5bd 7a07 ab3c 5abb 173f 36d5 703d
000001a0: 8457 1dbd ffa0 c23d 25f0 d23e 555e 3c3b
000001b0: 1d94 903c 3ea4 1bbe 00a8 5cbd e349 44bf
000001c0: 2ee0 0f3d 25c9 babe 858e 973c 8345 82bd
000001d0: 817b 603d 70bc 30bf 6d67 dd3e 7cdb 3c3e
000001e0: df0f 7cbe 9201 c53d 943a 35bf 4135 9b3e
000001f0: d226 54bf d330 3ebd 4829 5bbc 513e d4bc
00000200: 5f51 57bf d18e 58bd f01d 2a3e 6cff 403e
00000210: a630 c2be 13e1 ca3c 970c e83c 46d7 9d3e
00000220: 9483 033f 2496 9c3d 1ae8 1ebe 96c0 b8b9
00000230: 034b 713e ff55 593d 3505 82be a1fa 44bf
00000240: bad3 17bd 7e15 803d e9c2 e93e a2ce 4bbd
00000250: 92eb 32be 4f04 a33e 3baf df3e 5611 263e
00000260: 3c78 cebd 15e1 693d 949d b23d e5f5 dabd
00000270: 2c67 ea3e ab85 623e 9867 8c3e 5b73 363d
00000280: 66b8 393e 8795 933c 50c8 043c 6bf1 423e
00000290: c693 163f e50b 65bc b283 38bd 63ed 79bd
000002a0: e31f 84be 4c36 56be 9dfb 6a3d d9f0 2fbf
000002b0: 2c59 6c3e 7de8 603e 6fa2 95bd 5f58 2c3f
000002c0: b15e 23bf c355 b63d 31a3 e7be 3593 fabe
000002d0: c15c 71bd 2ab2 70be 2fe3 c23d ff84 97bd
000002e0: 9ca6 2abf df34 d4bc 48e0 8d3e 8f8f 0b3f
000002f0: acb5 fe3e d26c 6bbe ec57 89bd e87b 06bd
00000300: f353 cdbc 3ddd 3dbd 8ccb d4bd 40a0 cdbe
00000310: 6b8a 1abf 0755 89bb e50b 2d3f d1b6 0b3d
00000320: 05ce f43e 0ecd 3bbe e141 e13e 8995 ea3c
00000330: 3003 1c3e 0a57 353f 3e0e 273e 1a80 b1be
00000340: 88e5 9bbd 8be4 f83c 3ce0 e3be 2bb7 683c
00000350: 4d9e 0cbe 2e29 d5be 90a5 64be 1c74 1abe
00000360: 21c8 913b 25a0 2abd 6c14 48bf bb38 2fbd
00000370: 89ba 923c 4e60 1cbf a966 b7be 339b e2bd
00000380: 4e23 d63e 0b1c 283e d251 023f 4d21 7d3e
00000390: 46c1 313f 1059 d23e ed36 e8bd 0e22 88be
000003a0: 0bad 833e 9355 2b3e 5862 a4be 847c 08bd
000003b0: 268f 063f 4129 8e3e f0c6 393f a167 bebd
000003c0: 6ff8 ca3d bf7d e1be d13d a73e ce4c 1bbc
000003d0: 6285 e8bd 6e53 823e 7493 1fbc 7c18 c43d
000003e0: 8a2b e8bb 5d01 8b3e 8c03 22bf 835e 3c3d
000003f0: 0596 363e edbd 0d3e 4826 8cbe 84c6 493f
0.16369428 0.46648642 -0.23397811 -0.085798986 0.20217979 -0.31829768 -0.3701378 0.46379274
-0.15173434 0.36926416 -0.0054026665 0.08345599 -0.012157023 0.048156735 0.033515245 -0.13527796
-0.25245345 -0.09558697 -0.027057948 -0.043427505 -0.030803522 0.18872805 0.058475807 -0.1353496
0.41109285 -0.0879022 -0.09394286 -0.055592112 0.20708029 0.22708866 -0.0010616133 0.21929249
-0.12131794 0.14943856 0.07219571 -0.044048157 -0.8778275 -0.1384524 0.10936194 0.1498738
0.03370968 -0.4063987 0.55509007 -0.28482607 0.14835832 -0.5651899 0.15009625 0.18912172
0.12367293 -0.0057541374 0.44720548 -0.15382043 0.31743053 -0.18914364 -0.093639076 -0.53857046
0.17154457 0.41266552 0.1231903 -0.6125069 0.058825966 -0.11638847 -0.52912396 0.28133085
-0.3946506 -0.062468857 0.103046484 -0.01962667 0.014008709 0.002789337 -0.08327322 0.10685039
0.0029807093 -0.20743854 0.035076257 -0.09931288 -0.9541954 -0.49909794 0.02122579 0.044527464
-0.2941025 0.28932384 0.12822923 -0.5600374 -0.1420785 -0.012237272 -0.35799372 -0.043977614
0.017995853 0.2013078 0.064973325 0.30409846 -0.4453076 -0.0127416495 -0.17151032 0.027697219
-0.44585556 1.0581512 -0.20112401 0.37011853 -0.11198017 0.020877589 0.5927025 0.058797084
-0.03841354 0.09503364 0.4119884 0.002874275 0.01764875 -0.15199372 -0.053871155 -0.7667524
0.035125904 -0.36481586 0.018500576 -0.063609146 0.054805283 -0.6903753 0.4324297 0.18443102
-0.2461543 0.0961944 -0.7079251 0.30314067 -0.82871735 -0.04643328 -0.013376541 -0.025908621
-0.8410854 -0.052870575 0.16612983 0.18847436 -0.3792774 0.024765527 0.028326316 0.30828303
0.5137265 0.076458246 -0.15518227 -0.00035238703 0.23563771 0.053060528 -0.25394598 -0.7694493
-0.037067153 0.06254099 0.45656517 -0.049757607 -0.17472675 0.31839225 0.43688378 0.1621755
-0.10081527 0.05709942 0.08721462 -0.10691432 0.4578184 0.22121303 0.27422786 0.044543605
0.18136749 0.018015636 0.008104399 0.19037406 0.58819234 -0.013979887 -0.04504747 -0.061017405
-0.25805578 -0.2091915 0.057368863 -0.6872688 0.23080891 0.21963687 -0.073063724 0.67322344
-0.6381636 0.089030765 -0.45241693 -0.48940435 -0.058926348 -0.23505464 0.09515988 -0.07398414
-0.66660476 -0.025904117 0.27710176 0.5451593 0.4974798 -0.2299073 -0.06706223 -0.03283301
-0.025064444 -0.046353567 -0.10390386 -0.40161324 -0.6036746 -0.0041910443 0.67596275 0.034109894
0.4781343 -0.18339941 0.43995574 0.028635757 0.15235591 0.70835936 0.16314027 -0.34668046
-0.07612139 0.030382415 -0.44507015 0.014203827 -0.13732262 -0.4163298 -0.22328782 -0.15083355
0.004448906 -0.041656632 -0.7815616 -0.04277871 0.017911213 -0.6108445 -0.3582051 -0.11064758
0.4182381 0.16416948 0.509061 0.24719734 0.69435537 0.41083574 -0.11338601 -0.26588482
0.2571796 0.16731863 -0.3210628 -0.033321872 0.5256218 0.2776585 0.7256918 -0.092971094
0.09910666 -0.4404125 0.3266435 -0.009478761 -0.11353566 0.25454277 -0.009739745 0.095749825
-0.0070852684 0.27149478 -0.6328666 0.04598857 0.17830665 0.13841982 -0.27372956 0.78818536

linear3.bias f4 [4]
00000000: cc40 ec3c 4caf cbbe 5b25 603d 3959 9c3d
0.028839491 -0.39782178 0.054723125 0.07634205
