policy.pth (torch_old, 541473 bytes, 6 tensors)

linear1.weight f4 [400, 33]
00000000: 6d94 adbd 8f6b 9d3e 63dd 373e 865a 1ebf
00000010: e86c 173e 4009 fe3e 25bc 1e3e 43be a93d
00000020: 0275 4bbd 6a23 523b c40f 98bc 5bd5 7e3d
00000030: 73c1 e33d ff56 60be ce1c e6bd 991a 2a3e
00000040: 0572 3e3f 0e40 433f f38f 92bc f194 72bf
00000050: c66e a53c f76a 723d 3544 bcbd 605f 753b
00000060: 65d8 7cbc e30a 8c3d d568 9c3e 4821 5f3b
00000070: 1627 abbc 2c83 34bd 2f55 6ebe 4e03 1a3e
00000080: 2304 dd3e 09b7 2ebe f947 b63b 8f2c 33be
00000090: f348 b6be b53f 35bd 72fb a33d 7c27 00be
000000a0: 6dcf 84bd 6a36 4e3e 16f6 3d3e e875 6fbd
000000b0: d675 493d cff1 acbc 2c0b 9e3e 6bff 763e
000000c0: fd51 55be fdb2 913d a8d9 533e 7727 00be
000000d0: 3b6f 973e 0d7e 32bd 2e3f c33c 8849 f03d
000000e0: 6f79 27bd b4a2 073e bb77 563d 5a17 98be
000000f0: 5e01 a93e df62 ee3d 222e d3bd 4781 4bbe
00000100: f0b6 c33d c201 56bc f6bc 0f3e 1f1b 363e
00000110: 3a2c f83d 31a3 7a3d 415d 08bf 93d6 fcbe
00000120: be7c 06bd 2788 7dbd 1edd 183d 7941 3d3e
00000130: 483b 01bb ff3d e43d f7ec 9e3d 8a49 1cbe
00000140: d1d0 e3bc 5986 263e 6372 723d b61e 503e
00000150: f49f 4b3e 6c47 dfbd 623d 993c 7530 8e3b
00000160: c649 64bb 12da 6fbc 31ac 31bc 6156 ee3c
00000170: b1cd ba3d 07f3 073e 2944 6ebe 8244 e7bd
00000180: f3a2 9d3c 8c3c 153d 6914 e0bf 6fe5 f23d
00000190: 168a 573e 256b 753e 45fa f2bc 2454 ef3d
000001a0: 9133 71be cbdd d2be b3d6 1cbc 5d10 953e
000001b0: 917a 66bd 8fbb 6a3b 9b9f 453d ba35 fa3d
000001c0: 4617 b1bc 48cd 113e 3a7c ca3c 9e16 523f
000001d0: 7bec f4ba 8064 473e dd49 80bf 69ff 533e
000001e0: a056 36bd b7a8 4bbd 6fd8 2f3e b6c3 4bbd
000001f0: 15d4 8abd 0f5e 72be a98d 81bd 36f2 e5bd
00000200: 5e70 79bd 4be0 fbbd acab 17bd 1aee 643f
00000210: 5b32 1fbe b877 db3d 5d55 053e b92d 15bf
00000220: 82e6 7e3e ab8b 79be 22b0 ef3e c719 3c3d
00000230: 5c86 063e a280 ec3d 5df2 873d 9e82 7bbd
00000240: 8849 123d 8f72 b3bd 679e 5d3d 7d69 4c3c
00000250: 3007 d53e a45d 5dbf 5feb f3be e6af 78be
00000260: 1fcd 02bd 5475 323c 9f5d 8ebc c34e afbd
00000270: 7549 8e3b 3c5f c1bc bfa9 16be 5977 31bd
00000280: 50fe 5abe 28ff 0bbd 29df 3bbe 9ee9 19be
00000290: 5f95 853f bd0e 1cbe 6946 ecbd 8b92 04be
000002a0: 55c1 55bf 52cd b23e 8dab f03e 9aba daba
000002b0: a82e edbc a641 16be e67d 60be 9593 5abc
000002c0: dccb 1a3d fcae 0a3d 5630 54bd 0491 aa3e
000002d0: f50a 033e 011f 183f b3d9 a43d 27b1 1f3d
000002e0: 0607 0e3f 8b8d 183c 9ce9 9c3d 36af a7bd
000002f0: b417 6ebd ef50 173e 47c6 e83d c21a c83e
00000300: e08c c9bd 08b7 ffbd 1a51 fbbd fa31 f6bd
00000310: afbd cfbd e59e 8cbf 29da c7bd 55fc 703e
00000320: ab85 9ebe 59c3 a5be fac0 5dbe b369 643e
00000330: ab5e 8d3d cfe3 91bc 67ec 75bd 30ae ae3d
00000340: b306 da3b 0e07 3ebd 55ef 00bd 6339 1f3d
00000350: 44ef a23d 71f0 bf3d e40d bcbe 761c 193e
00000360: e189 0fbe 23a8 98bf 6983 1abc 3fc1 6bbd
00000370: df56 04bc 29b7 32be 3caa ba3c 7635 023e
00000380: 222b 27bd 0a20 513e 4e5f d63d c866 4abd
00000390: 789f 34be e02d d3bc 0cdb b43e 8801 3dbe
000003a0: 86a3 973e 5a11 213e 9443 51bd fb71 243e
000003b0: 38d9 04be 99b3 ccbe fbf5 38bd 08dd c13c
000003c0: 3564 d23d 5c82 64bc 50c1 c1bc e7ca daba
000003d0: fded 063d 5622 04bf 57b3 243d e088 363b
000003e0: 8f20 673f 14ff c13e 40cc e3be 343e be3c
000003f0: 1c1c 81bd 637a 863b aaa9 f83d 93fe dabd
-0.084755756 0.30746123 0.17955546 -0.6185688 0.14787638 0.49616432 0.15501459 0.08288243
-0.049672134 0.0032064565 -0.018562205 0.06221519 0.11120882 -0.21908186 -0.11235963 0.16611709
0.7439273 0.76269615 -0.017890906 -0.94758517 0.020194422 0.05918404 -0.09192697 0.003744088
-0.015432452 0.06838014 0.3054873 0.0034046937 -0.020892661 -0.044070408 -0.23274682 0.15040323
0.4316722 -0.1706201 0.005562779 -0.17497467 -0.3560253 -0.04425021 0.08006944 -0.12515062
-0.06484876 0.20137945 0.18550906 -0.058462054 0.049184643 -0.021111397 0.30867898 0.24120872
-0.20832057 0.071142174 0.20688498 -0.12515055 0.2957705 -0.043577243 0.023833837 0.11732775
-0.040887292 0.1324566 0.052360278 -0.29705316 0.33008856 0.11639952 -0.103115335 -0.19873534
0.09556377 -0.0130619425 0.14036927 0.17783783 0.121178105 0.061190788 -0.53267294 -0.49382457
-0.032833807 -0.061897423 0.03732025 0.18482007 -0.0019719172 0.11144637 0.07760041 -0.15262428
-0.027809532 0.16262187 0.05919112 0.20324215 0.19885236 -0.109022945 0.018706027 0.0043392726
-0.0034834011 -0.014639394 -0.010844276 0.029093923 0.09121264 0.13276301 -0.23268189 -0.11292364
0.01924274 0.036434695 -1.7506229 0.11860167 0.2104877 0.23966654 -0.029660353 0.116859704
-0.23554827 -0.4118484 -0.009572673 0.29114047 -0.056269232 0.003581736 0.048247915 0.12217279
-0.021617543 0.14238465 0.024717439 0.8206576 -0.0018686199 0.19471931 -1.0022541 0.207029
-0.044516206 -0.049721446 0.17172407 -0.04974719 -0.06778733 -0.23668693 -0.06325848 -0.11227839
-0.060898177 -0.1229864 -0.037028953 0.89425814 -0.15546553 0.10716194 0.13020845 -0.5827289
0.24892619 -0.24369685 0.46814066 0.04592302 0.13137192 0.11547972 0.06638024 -0.061403863
0.035714656 -0.08762085 0.054106142 0.012476322 0.41607046 -0.8647101 -0.4764051 -0.2428585
-0.0319339 0.010892231 -0.017378626 -0.085599445 0.004342253 -0.023604982 -0.1471319 -0.04332671
-0.21386075 -0.034178883 -0.18346848 -0.15030524 1.043621 -0.15239997 -0.11536867 -0.12946527
-0.83498126 0.34922272 0.47005883 -0.0016687692 -0.028952911 -0.1467348 -0.21923026 -0.01334085
0.03779207 0.033858284 -0.05180391 0.33313763 0.12797149 0.5942231 0.08049335 0.038987305
0.55479467 0.00931109 0.07661745 -0.08187716 -0.058128074 0.14776967 0.113659434 0.39082915
-0.09841323 -0.12486082 -0.12271328 -0.12021251 -0.10143601 -1.0985991 -0.097584076 0.23533757
-0.30961356 -0.323756 -0.21655646 0.22305946 0.06902822 -0.017808823 -0.060039904 0.085293174
0.0066536306 -0.046393447 -0.031478245 0.038873088 0.079557925 0.093720324 -0.36729348 0.14952263
-0.1401744 -1.1926311 -0.009430745 -0.05755734 -0.008077352 -0.17452683 0.022786252 0.12715706
-0.04081262 0.20422378 0.10467397 -0.049414426 -0.17638958 -0.02577871 0.3532337 -0.18457615
0.29616946 0.15729275 -0.05108984 0.16059105 -0.12973487 -0.39980772 -0.04515646 0.023664966
0.10273019 -0.013947096 -0.023651749 -0.001669255 0.032941807 -0.5161489 0.040210094 0.002785258
0.90284055 0.37889922 -0.44491768 0.02322302 -0.063041896 0.004103945 0.12141736 -0.106930874

linear1.bias f4 [400]
00000000: 9e3a 7bbe 5171 a5be 0c7b d03d fabf 413d
00000010: b377 33be 7c46 37be 7b0c 89be a22b cfbe
00000020: 5c22 02bd d933 2dbe 07d5 91bd fb61 69be
00000030: aaa1 5dbe 55d8 43be fb2f 99be 6d2f a9be
00000040: 1f77 cebe 8e99 01be d41b 9cbe fb34 75be
00000050: 85be 96be 66c5 6abe 929a 86be f8d8 7ebd
00000060: 4e17 dbbe 1b01 fdbd 16b7 9bbe fd95 c63d
00000070: ebdd 073d f44b 91be ac4b a53d 5439 1e3e
00000080: fcd5 37be f828 6dbe 2bae c9bd 47ce 0fbe
00000090: 519f 63be c37b 9ebd 8a15 8a3d dc73 8bbd
000000a0: 0eaf 45be b0ca 9e3c 70d6 913d 0fc8 43be
000000b0: f2b1 fbbd 30d6 b0bd 728e 79be 174e 2f3d
000000c0: 348f 9fbc 83e7 b1be de42 e13c 543f 2d3e
000000d0: 3f22 743e b9d3 87be 5953 bbbe 0b66 7d3e
000000e0: f122 b7bd beb7 19be ab35 dabd 2c2e 51be
000000f0: 0055 03bf 79e6 b7bd f3ca 513d e04b 45be
00000100: 7a6e 9dbd 59ea 9cbe 5ffe e7bd 2f10 b6be
00000110: 30a9 993b c550 c6bd 04a5 07be 10e6 abbe
00000120: ffba b3bd 0f15 8fbe f284 bf3c 82cd ab3d
00000130: ddf6 4cbe 4656 57be 1d07 39bd d49d 5dbe
00000140: b873 2abe 0392 80be 57ae 21be edbf dcbd
00000150: 0f70 0fbe 3d28 65bc 22be 52bc 32ae 9d3c
00000160: 4835 ed3d 4f97 bbbe 2b28 8dbe de47 babd
00000170: 4779 00bf 8cf7 27bd 45a0 abbe 4942 d4be
00000180: c8e3 4b3d ff7c e8be d0d6 08be 7b1c b2bd
00000190: c2b9 ddbe 1f8e ed3d cbdf 66be 3477 193d
000001a0: bb50 48be 7de8 e93c 2bd2 4b3e a4df afbe
000001b0: e82b 83be 6a80 35be 69bc dd3c 3f19 cdbd
000001c0: 35fb 33be f030 1b3d d7e3 f7bc 7be1 7a3d
000001d0: 8fe4 e0bd af99 31be 89a9 d3be 78d5 0fbe
000001e0: d7ca b9be d9ce dabe a1a0 09bf e287 223e
000001f0: e226 30be 877a 433d ccc6 f3bd 8825 1bbe
00000200: 6ee0 91bd 0752 ecbb f729 d0be be52 4a3d
00000210: 11d4 823e 858f d6bd c53b 82be bda7 1a3e
00000220: 9a58 9cbe 40d5 38be f911 35bc 28a4 3dbe
00000230: 9cf8 80bd 92f9 29bd f196 8fbe 2ffc 8dbe
00000240: d490 80bd 6489 ffbd 4565 94be 7e30 e3bd
00000250: d539 c6be 160f adbe f509 87be ae85 583b
00000260: 1349 c03d 1014 b1be 85b7 29be 1659 66be
00000270: 0e5a 4ebd f713 8fbe dfff abbe 4609 d8bd
00000280: 0763 efbe 2d16 01be 7ace 4fbd 1ff7 69bd
00000290: 7f90 043e 21c4 a9be 194b 8bbe 4e37 c73d
000002a0: a7c7 6dbe effd 81bd 6d1f f2bd b81d b2be
000002b0: 95ae 7cbe 0a65 f7bd 2efe a4be e055 9ebe
000002c0: af7d 3ebe d10c a8be a3d5 84bd 796b 92bc
000002d0: 39ca e43c 5e03 7bbe a4f4 97be 56e4 82be
000002e0: b853 ffbd 99b2 713c 1fac 10be 53d4 72be
000002f0: af3f 383e fa95 203d bfba 18bd 5a98 b6be
00000300: 1ee5 32be edb3 00ba 4710 0bbe 1670 09be
00000310: 77c5 bfbe 65ee c2bd 9739 b53d 6cb1 acbe
00000320: a1de a1be c38c 5fbe a102 dcbd 0bce 1dbe
00000330: 4f3e cabe 344f 0e3e 1387 c9bc 303a 8bbd
00000340: 3216 09be 129e 14be 798b 5fbd 5904 abbd
00000350: 114c 44be b888 8ebe 27d0 adbd 9812 67be
00000360: 338d b7be a3db 8bbe cfde 3abd f5ec 523d
00000370: 9ada 9bbe dc60 e5be 1f06 d1be 877d 03be
00000380: 785d 62be f8fd 0f3e e4dc d6bd 2a3b a33d
00000390: 4503 4f3c b571 27be 0b2d 9b3d 6580 1bbe
000003a0: 92a4 00be 87c1 3fbe da9d 74be 3bea 27be
000003b0: acf6 c3bd fa49 dfbe e437 6fbe 7d38 2cbd
000003c0: 8795 cf3d 6fde 03be dcd5 92be 3c47 2abc
000003d0: 9ece 86be 66a2 bcbe f9f6 a3bb 7c86 483d
000003e0: e9f3 c1be 62d7 5ebe 79bc 3bbe 9cb5 8fbe
000003f0: 642f ccbd 4530 96be 8f74 b8bd 9fb3 04be
-0.2453408 -0.32313016 0.10179719 0.047302224 -0.1752613 -0.17897981 -0.26767334 -0.40462977
-0.03177105 -0.1691431 -0.0712071 -0.22791283 -0.21643701 -0.19125493 -0.2991942 -0.33043995
-0.40325257 -0.12656233 -0.3048998 -0.23945992 -0.2944223 -0.22926864 -0.26289803 -0.062218636
-0.42791218 -0.123537265 -0.3041312 0.09696577 0.03317062 -0.2837826 0.08071074 0.15451556
-0.17952722 -0.2316016 -0.09847673 -0.14043532 -0.22228743 -0.077384494 0.067423895 -0.06809208
-0.1930506 0.019383758 0.07120979 -0.19119285 -0.122898 -0.08634603 -0.24370745 0.04279908
-0.019477464 -0.34746942 0.027497705 0.16918689 0.23841189 -0.2652872 -0.36587027 0.24745958
-0.089422114 -0.15011498 -0.106547676 -0.2042777 -0.51301575 -0.08979506 0.051218938 -0.19267225
-0.07687087 -0.30647543 -0.11327814 -0.35559222 0.004689358 -0.09683374 -0.13246542 -0.3357396
-0.08775901 -0.27945754 0.023378823 0.08388807 -0.20016046 -0.21029004 -0.0451728 -0.21642238
-0.16645706 -0.25111398 -0.15789162 -0.107787944 -0.1400759 -0.013986644 -0.012862714 0.019248102
0.11582428 -0.36638877 -0.27569708 -0.09095739 -0.50185055 -0.041007563 -0.33520713 -0.41456822
0.049777776 -0.45407864 -0.13363194 -0.086968385 -0.43305784 0.11599373 -0.22546308 0.037467197
-0.19562046 0.028553242 0.19904391 -0.34350312 -0.25619435 -0.17724767 0.02706738 -0.10014581
-0.17576297 0.037888467 -0.03026001 0.06125019 -0.10981094 -0.17343782 -0.41340283 -0.14046276
-0.36287567 -0.42735937 -0.53760725 0.15872148 -0.17202333 0.047724273 -0.11903152 -0.15151036
-0.07122885 -0.007211927 -0.40657017 0.049395315 0.2555242 -0.10476593 -0.25436226 0.1510305
-0.30536348 -0.18050098 -0.011051648 -0.18519652 -0.062974185 -0.041497774 -0.28044847 -0.27731463
-0.06277624 -0.12477377 -0.28983513 -0.110932335 -0.38715997 -0.33800572 -0.26374784 0.0033038664
0.09388938 -0.3458562 -0.16573913 -0.22494921 -0.05037885 -0.2794492 -0.33593652 -0.10548644
-0.4675524 -0.12606116 -0.05073402 -0.05712044 0.12945746 -0.33157447 -0.27205732 0.097273454
-0.23220693 -0.06347262 -0.118224 -0.347883 -0.24675973 -0.120798185 -0.32225174 -0.30924892
-0.18602632 -0.32822278 -0.064860605 -0.017873513 0.027928459 -0.24513003 -0.29678833 -0.25564831
-0.1246714 0.014752054 -0.14128159 -0.23713808 0.17993043 0.03920553 -0.03728747 -0.3566311
-0.17470214 -0.00049096235 -0.13580428 -0.13421664 -0.3745534 -0.095181264 0.08848875 -0.33729112
-0.31615165 -0.2183104 -0.10742689 -0.1541063 -0.39500663 0.13897401 -0.024600541 -0.06798208
-0.13387373 -0.14513424 -0.05457637 -0.083504386 -0.19169642 -0.27838683 -0.084869675 -0.22565687
-0.35849914 -0.27316007 -0.045622643 0.05149551 -0.30440217 -0.4480046 -0.40824983 -0.12840854
-0.22105968 0.14061725 -0.1049135 0.07970269 0.012635057 -0.1635197 0.07576951 -0.15185697
-0.12562779 -0.18726169 -0.2388834 -0.16397946 -0.09568533 -0.43611127 -0.23361164 -0.04204606
0.10135942 -0.1287782 -0.28678787 -0.01039296 -0.2632951 -0.3684265 -0.0050038067 0.04895638
-0.378814 -0.2176185 -0.18333615 -0.28068244 -0.099699765 -0.29333702 -0.09006607 -0.12959145

linear2.weight f4 [300, 400]
00000000: 7826 bf3c db28 aa3e be4f 41be 8051 9c3e
00000010: 949e f0bd 63a3 853d e1bd 6d3e 03d0 e9bd
00000020: 0585 263d d1ac 243e 29eb 9ebe 68a9 e43d
00000030: cf28 463e 9996 563d 843a 573d 0759 19bc
00000040: 68ce 383e b05f 98bd db82 0a3e 0096 893e
00000050: a0d8 063e d5d8 67be f8d2 0f3d a295 a53d
00000060: 3824 82be 31d4 3bbe e8bd 903e a3ce 17be
00000070: 7c9c 0abe 4ae2 a6be 4dd8 6dbf ef16 a7bd
00000080: 87cd 703d 67d5 343e 4f78 21be b391 493d
00000090: d3b7 a23d 82c5 52bd 700a 7d3d 4826 5bbe
000000a0: ae54 1bbe ffe9 233e e84b 853d 0e46 113d
000000b0: 40cc 573e dd00 f0bd 5e54 e9bd a098 6bbd
000000c0: 8c12 31be 4bcc 24be 689e cbbe 5947 aa3e
000000d0: 4b8e 93be 38de 04be a3df 79be 218e 6d3e
000000e0: f498 aabd 80c0 023d 619e 383d d353 98bd
000000f0: e1d3 b63d 931e 2c3e acce 56be 3f5c bebd
00000100: 4fe9 38ba 48f8 0ebe 2abc 7c3e 6525 663d
00000110: c14f e9bc fb8c 8cbd a358 dbbe f6f1 be3d
00000120: 9e56 3f3d d937 c53e c92f 443e 79e9 7e3e
00000130: b99b 3bbe 1050 803e 4afe 9a3c 3d3d 9d3d
00000140: 1717 cd3d f14e 27bc 255f 1ebe 3221 663e
00000150: 7682 29be f30c 62bd a13e 643d 8879 cf3d
00000160: 67f6 573e 2881 f7bd 27d3 53be e0c7 00be
00000170: 47a0 febe 5b36 293e 8b84 b33e 6fb8 95be
00000180: 4019 20be 5774 66bd 36c6 1ebe 2c08 913e
00000190: ccb3 6d3e ffd7 0fbe 5150 ec3d 544d b5bd
000001a0: 1c66 26bf a494 393e 47a4 88be bf1f 993e
000001b0: 27ad eabe 1438 42bd af8b 903c 1fdb 1ebe
000001c0: 139c 2a3d 7ee1 103e 8d33 a7be 4177 5e3d
000001d0: 79b4 5fbe d8fa 463e a50b 11be 92b3 213e
000001e0: 5f6e f3bd 797e f13d 4413 703d 6852 24bd
000001f0: f689 aa3d 97bf 2d3d d84b 4b3d 16ee 8dbc
00000200: 722a f23d 9023 d6be 3519 eabc 448b 7e3d
00000210: bc94 4e3e f021 dbbd c360 0dbe 9dbe bb3d
00000220: 0c76 3ebd d479 213d a6c6 87be 6e4b 96bd
00000230: 87cb dcbe bc90 183d 0f4a b3bb 8e79 3cbe
00000240: c054 52bb 1e8b 88bc 2817 c63c c6f4 83be
00000250: 05cb c43d 89d9 3e3d c7db fabc 7b3b 6d3e
00000260: a4eb 843e 42c0 51be 42c4 8f3d 7a7d 52be
00000270: ea90 f8bc 54d9 35be 1db9 a33d dfbb 5abd
00000280: 117d 8a3d 7589 36be c25b a4bd e8cb 563d
00000290: f17b 993d 3925 46be 85d3 753e f667 4cbe
000002a0: 5706 7fbe b164 7cbe d18d 63bc 93ba 1d3e
000002b0: f25d 5bbd 0c3e 65be 44d1 c1bd 1aa8 f9bd
000002c0: 89a9 1fbf e7ff a7bd 0877 393e 4822 533e
000002d0: f8d5 f83b 0b35 0fbf 46a8 8bbd 1363 8b3e
000002e0: 6460 683e d3dd c9bc 7fad 83bc 9c5f c6bc
000002f0: e86a cbbe 36dd 4bbe ad1c 5ebe 1129 d8bd
00000300: 518c 2abd 1cd4 5ebe bc13 c2be b0a0 03bf
00000310: 0d04 6cbf 0a33 01bf 1043 7ebe a9c2 ebbc
00000320: 0a34 033e e564 0fbe 15ce ba3c 5bcd f13c
00000330: 501f 1dbe 088c e5bd 7ae0 063d b54b 3f3e
00000340: e2fe 4fbc ffa7 143d 098c cebc 25ab d83c
00000350: 016f bc3d d3c0 c9bd 607e aabe ed73 83bd
00000360: 8442 a9bd 4db7 1cbe b36e 45bd 2dd4 a3bc
00000370: 69e2 04be d24d f13e e092 96be 405f 9ebd
00000380: 0141 a3bd 6da8 89bc 1567 bd3d 606b 22bd
00000390: 419f 8bbe c659 afbe 1ad6 473e 978b a4bd
000003a0: d0f4 253e 082d cf3d b412 81bd 130b 043d
000003b0: 6b59 d63d b237 5dbd 6b6c ba3c 6031 09be
000003c0: 6d6a 3abe 4ab7 343d 30f1 d03d 7242 c5bc
000003d0: d657 44be ef85 823e cbd4 2c3d c14f e4be
000003e0: 8b88 d8be 4810 27bf fb23 87be 66ec 09bf
000003f0: 9ed9 77be d4c5 00be 4173 f33b 4c50 3cba
0.023333773 0.33234295 -0.18878075 0.3053093 -0.117489964 0.06525304 0.23216964 -0.11416628
0.0406542 0.16081549 -0.31038788 0.11165124 0.19351505 0.052389715 0.05254604 -0.009359605
0.18047488 -0.07440126 0.1352648 0.26872253 0.13168573 -0.22641309 0.035113305 0.08085181
-0.25418258 -0.18342663 0.28269887 -0.1482492 -0.13536257 -0.3259452 -0.92908174 -0.08158671
0.058789756 0.17659532 -0.1576855 0.049211215 0.07945218 -0.05145789 0.061777532 -0.21401322
-0.15169021 0.16007231 0.065086186 0.0354672 0.21074009 -0.11718915 -0.11393045 -0.0575186
-0.17292231 -0.16093557 -0.39769292 0.3325756 -0.28819498 -0.12975395 -0.24401717 0.23198749
-0.08329955 0.031921864 0.045072917 -0.07437863 0.089271314 0.16808538 -0.20977277 -0.09294938
-0.00070538087 -0.139619 0.24681154 0.056188006 -0.028480412 -0.068628274 -0.42841062 0.09323494
0.046713464 0.3851917 0.19158854 0.2489375 -0.18321122 0.25061083 0.018920083 0.07677696
0.1001417 -0.010211692 -0.15465982 0.224736 -0.16553673 -0.05518813 0.05572379 0.10130602
0.21090089 -0.120851815 -0.20686017 -0.12576246 -0.49731657 0.16524641 0.3506206 -0.29242274
-0.15634632 -0.056263294 -0.15505299 0.28326547 0.23213118 -0.1404724 0.11538757 -0.0885264
-0.64999557 0.18123108 -0.26687834 0.29907033 -0.4583523 -0.04741676 0.017644731 -0.15513276
0.04165275 0.14148518 -0.32656518 0.05431295 -0.21846189 0.19431627 -0.14164598 0.15791157
-0.11886286 0.11791701 0.058612123 -0.04011765 0.08327095 0.042419042 0.049632877 -0.017325442
0.11824502 -0.41824007 -0.028576473 0.062144533 0.20173925 -0.106998324 -0.13806443 0.09167216
-0.046499297 0.039422825 -0.26518744 -0.07338606 -0.4312403 0.037247404 -0.005471475 -0.18405744
-0.0032093972 -0.016667899 0.024180964 -0.25772685 0.096090354 0.046594176 -0.030622376 0.23167221
0.2596103 -0.20483497 0.07019855 -0.20555678 -0.030342538 -0.17758685 0.07994292 -0.053401824
0.06762136 -0.17825873 -0.08025314 0.052440554 0.07494343 -0.19350137 0.2400647 -0.19961533
-0.24904762 -0.24647786 -0.013888792 0.15403204 -0.05355639 -0.2238695 -0.094637424 -0.12190266
-0.62368065 -0.082031064 0.18111813 0.20618546 0.0075938664 -0.5594031 -0.06819205 0.27224025
0.2269302 -0.024641907 -0.01607394 -0.024215512 -0.3973 -0.19908604 -0.21690626 -0.10554708
-0.041637722 -0.21760601 -0.3790568 -0.51417065 -0.9219368 -0.50468504 -0.2483027 -0.028779345
0.1281282 -0.14003332 0.022803346 0.029516866 -0.15343976 -0.112083495 0.03292892 0.18681224
-0.012695046 0.036293026 -0.025213258 0.026448796 0.0920086 -0.098512314 -0.3329954 -0.064185955
-0.0826464 -0.15304299 -0.048201274 -0.019998634 -0.12976994 0.47129685 -0.29408932 -0.07733011
-0.07971383 -0.016803944 0.09248177 -0.039653182 -0.2726994 -0.3424818 0.19515267 -0.08034437
0.1620667 0.10116011 -0.063023955 0.032237124 0.10466274 -0.054008193 0.022756776 -0.13397741
-0.1820466 0.04412011 0.10202253 -0.024079535 -0.19174132 0.25492808 0.042195123 -0.44592097
-0.42291674 -0.6525922 -0.26394638 -0.5387634 -0.24204108 -0.12575465 0.007429511 -0.0007183596

linear2.bias f4 [300]
00000000: 6529 bc3c 74db 86bd c4db 1e3d 2766 89bd
00000010: 46b4 48bd b065 0e3c ed61 983c 8bc4 2bbe
00000020: 9f00 08bd c58b 4dbc cd86 64bd ac66 313c
00000030: 9b12 dcbd aa01 a33c 1c1d ddbd eb51 2fbe
00000040: ae80 143b 2b86 5a3d 037a bebc 63fd 7a3d
00000050: ff1b 743c fcc0 23bd c1eb acbd 1e2e 203e
00000060: 8c9a 0e3d 46a1 c33b 7c43 d4bc a3f4 a63d
00000070: 8f1a 8f3d e078 acbc 9c11 573c 7787 d93b
00000080: bc9c 2dbd b8a4 1c3c 20bb b83d 7df4 81bd
00000090: 14fe 19bd 9b8d 07bd b037 3b3d 174c 6fbd
000000a0: d833 7a3d 6898 b73c 8acd 40bd 19dc 8b3d
000000b0: bb8a 1e3d 774c b0bd 93f9 33bd 8922 99bd
000000c0: 6cbb c73c c6b9 f3bc 8ecf ef3c c93e 233a
000000d0: 178b b4bd 6652 bc3d b27f 2bbd ccd6 21bd
000000e0: 211d 7b3c f79d 72bd f234 29bd 8552 d5bd
000000f0: d5cd a9bd 2c1c 603d 483d f93c 4945 d1bd
00000100: cd88 fc3d 61c4 553d 1c59 f0bc e8d0 0dbe
00000110: 93a0 80bd 47fa 05bd 65e3 4d3d 0854 3bbe
00000120: 7f26 8e3d e1f7 48be 40c2 af3c f6e8 93bd
00000130: eea0 89bd 7c92 55bd df79 19be 563d 57bd
00000140: c101 21be 67f0 ebbc 67a2 0d3d cfd4 40be
00000150: 98c6 de3d b11b 89bc ff6a 213c be04 83bd
00000160: 0fd8 55bd 25a6 333d 7223 bb3b 57ed 28be
00000170: c493 39bd a32d 1abd 4f3b 89bd 2609 afbd
00000180: 6df9 dfbd 809d b8bc 95e2 84bc ffeb ab3d
00000190: b2a2 213e e3cd b13d fb35 933c 7e9f 71be
000001a0: 2591 763d 4336 30bd 99ff 693d e174 aebc
000001b0: 2680 923d bbba da3d cb92 923d c3bd 84bc
000001c0: 519d 083d 02cd 2bbc 21c8 05bd d2e1 8bbd
000001d0: 426a 223d 2dab 733d 3310 e5bd f505 a33d
000001e0: 969a b43c 6c44 863c 3bed 683d 635c 303d
000001f0: d663 993d 8081 bf3d 2306 5ebc 2660 483e
00000200: 169a 583d 1cdf 27bb ad11 e23d 81df 553c
00000210: 4576 bebd 3098 30be d674 23bd bab4 8c3c
00000220: c879 97bc 55d5 fa3d ca4e 483d d45f ff3c
00000230: 6bbc 723d c3c9 d3bd 5358 11bd 012b 18bc
00000240: 423b c5bd 67b5 933b eebf 4dbd 16a9 a93d
00000250: fd1e 06bc 05e8 93bd 4cc1 8ebd 7d36 043d
00000260: e249 1dbe 7aaa 0f3d 9ba2 39bd b9fd 803c
00000270: 25f8 32bd 9257 4c3d a46d 48be af7a ebbd
00000280: c6ce 09bd 74b3 153e 05e4 17bd 5a1f f9bc
00000290: 61a9 433c fd9e 1ebc 21ad 8f3d 3f67 0f3e
000002a0: 2bac dfbd 2816 07bd 914e fbbb f3e0 cf3c
000002b0: f85e 01be 0e29 23bd 156b a2bc d30f d7bd
000002c0: 3dd2 b6bd 7b96 5c3d 3983 c6bd ffe3 9a3d
000002d0: 5293 f5bd f0dd ccbc 905d dcbd ec07 17be
000002e0: f34b fe3b 4f42 123d 2580 85bb 76d1 60be
000002f0: 52d3 423b 0e38 793d cf7d 133c 5678 023e
00000300: 5bcd 0abd 5e5e a9bd 5c7f 543c 5efc 9b3d
00000310: c5ab 4bbc c1a3 2bbe a8a1 e9bd 44e7 2e3d
00000320: 493f 463d da0d ca3c b57b 39be c4dc 703d
00000330: 5b4a 7dbd 1b9e 2bbc d6b9 aa3d cb40 d13b
00000340: b6f6 b2bd ff07 c6bc 3a57 003c 6d9f 893d
00000350: 28b9 5fbd 4983 85bc ded2 413d 5d5e c23d
00000360: 6f7a 86bd 6ec9 d2bc 1f15 813d 70b7 723d
00000370: 92da 82bc 77b7 2fbd e17e 283d e712 84bd
00000380: ff2b 823c 827a 27bd 665b aeba 9a7a 63bd
00000390: 0e41 adbd 0e44 2e3d 66b9 c1bc a53d 963d
000003a0: 6c9f d7bd 624e 973d 3e08 3a3d 0f95 763d
000003b0: c4f3 c2bd 2848 71bd ad83 3dbe 82a6 51be
000003c0: d773 a1bd 0f0a 4c3d 7f71 833d 4314 0ebe
000003d0: f382 f5bd 6097 a33b 72d4 8cbd dbe8 32bd
000003e0: 8579 02be 933f e53c d990 abbb 3746 39bd
000003f0: c451 983c eb83 9a3d ac59 febc 1282 db3b
0.022968957 -0.06584826 0.038783804 -0.06708937 -0.049000047 0.008691236 0.018601382 -0.16774194
-0.033203717 -0.012545531 -0.05579262 0.010827702 -0.10745736 0.019898254 -0.10796568 -0.17121093
0.0022659707 0.05335061 -0.02325154 0.061276805 0.014899253 -0.039978966 -0.08443404 0.15642592
0.034815356 0.005970153 -0.025911085 0.081521295 0.069874875 -0.021053731 0.013126757 0.006638463
-0.0423858 0.009560756 0.09020066 -0.063454606 -0.037595823 -0.03309403 0.045707405 -0.058422174
0.0610846 0.02241154 -0.047071017 0.0682909 0.038706522 -0.086083345 -0.043939184 -0.0747729
0.024381362 -0.02975167 0.029273774 0.0006227312 -0.08815592 0.09195404 -0.041869827 -0.039511487
0.015326769 -0.05923268 -0.04131026 -0.1041613 -0.082912125 0.054714367 0.030424729 -0.10218293
0.1233078 0.052189235 -0.029339366 -0.13849223 -0.06280627 -0.032709386 0.05026569 -0.18293774
0.06940936 -0.19625808 0.02145493 -0.07222168 -0.06720148 -0.05214165 -0.14987896 -0.05254873
-0.15723325 -0.028801156 0.034578707 -0.1883118 0.108777225 -0.016736837 0.00985217 -0.06397389
-0.052208003 0.04385962 0.0057110125 -0.16496788 -0.045306936 -0.03764118 -0.06700765 -0.08546667
-0.10936246 -0.02253604 -0.016221324 0.08394622 0.1578472 0.08681848 0.017970076 -0.23595998
0.060197014 -0.043020498 0.057128523 -0.021295967 0.071533486 0.10680147 0.07156905 -0.016203767
0.033353154 -0.010485889 -0.03266156 -0.06830181 0.039652117 0.059489418 -0.111847304 0.079601206
0.022046369 0.016390048 0.056866866 0.043056857 0.07489745 0.09350872 -0.013551268 0.19567928
0.052881323 -0.0025615161 0.11038528 0.013053776 -0.09299902 -0.17245555 -0.039906345 0.01717602
-0.018490687 0.12247721 0.048903264 0.031173624 0.05926172 -0.10341217 -0.035484623 -0.009287597
-0.09630443 0.004507709 -0.050231867 0.08284204 -0.008186099 -0.072219886 -0.06970462 0.032278527
-0.15360215 0.03507469 -0.04532109 0.015745984 -0.04369368 0.0498882 -0.19573075 -0.114980094
-0.03364446 0.14619237 -0.03708269 -0.030410457 0.011942239 -0.00968146 0.070154436 0.14004229
-0.1092151 -0.032980114 -0.007669278 0.025375819 -0.12633884 -0.039834075 -0.019826451 -0.10501065
-0.089268185 0.053854447 -0.096929975 0.07563018 -0.1199099 -0.025008172 -0.10760033 -0.14749116
0.0077605187 0.035707768 -0.004074114 -0.21954903 0.0029728008 0.060844474 0.009002163 0.12741217
-0.03388725 -0.08269952 0.012969818 0.076164946 -0.01243109 -0.16761686 -0.114077866 0.04270102
0.048400197 0.024664808 -0.18113597 0.05880429 -0.06183849 -0.010474707 0.08336227 0.0063858978
-0.087384626 -0.024173735 0.007833296 0.06719861 -0.054619938 -0.016297953 0.04732024 0.094906546
-0.06566321 -0.025730815 0.06302857 0.05925697 -0.015973363 -0.042899575 0.041136626 -0.06448918
0.01589012 -0.040888317 -0.0013302385 -0.055536844 -0.08459674 0.04254537 -0.023647975 0.073359765
-0.10528454 0.07387997 0.045418017 0.060200747 -0.09519151 -0.058906704 -0.18507262 -0.20473674
-0.07883423 0.04981428 0.06418132 -0.13874917 -0.11987867 0.0049924105 -0.06876458 -0.0436791
-0.12741669 0.027984416 -0.005235773 -0.045232978 0.018593676 0.075446926 -0.031048618 0.006698855

linear3.weight f4 [4, 300]
00000000: 4453 593e fb37 ee3d 64cc a63e 30c9 bb3e
00000010: 403d b53e c3d9 f2be 8d09 42bf b762 25bf
00000020: cdae 9abe e930 bb3c 2d09 b2be 15e3 063d
00000030: ae24 ac3e 490b 873e bf10 b03d 92a8 043e
00000040: d5b3 fa3d 2740 a63e 48d6 49be c23b 7f3f
00000050: 85ec 32bf 6341 f4bc 3523 833f 5bb2 9cbf
00000060: 210c 7abe e24c aa3e 2251 14bf 6db4 fcbe
00000070: f3ac 783d 11ce c73e 7415 d83f c135 893e
00000080: 338b 9e3f 5275 11be f00d e63e 6660 703f
00000090: 1bb8 a93e 16a5 81bf b657 a33e 6ee3 bc3e
000000a0: 7552 c63e adc7 84be 71b1 593d 76e4 12bf
000000b0: 8fab 4c3f 45b7 9a3e 77dd 013e 3567 22be
000000c0: 29b0 943d affe ffbd 878f 9e3c c2f9 ef3e
000000d0: b247 813e 1a87 40bf 9809 5a3f 389e 7cbe
000000e0: b4b9 66bf 6216 5d3d a6b3 3cbf 2725 efbe
000000f0: ce7e 56be 61b6 3a3e 214b f23d 079f 433c
00000100: 7869 8e3e 3326 99be b1d5 b13e 0171 ed3e
00000110: 95f7 b0bd d885 09bf a95c 1dbe e17c 5d3e
00000120: b9b2 b0be d24f 713d 8184 08bb d406 38bf
00000130: 47fd 72bd 8793 55bf cea6 d9bd 00f8 0c3f
00000140: 2792 4dbf 1f7c 363c 0097 a03e 1cfb 873e
00000150: 0d72 d8be 55ad 02bf 0e4b 8eba 3b77 cfbe
00000160: fd6e 223f 6733 053e 9ce7 913f 441d aa3e
00000170: 7a88 48bd 6233 8e3f fb8f 3f3e 3a80 8fbf
00000180: fc1e fbbe abb8 123e 3752 73be f34e 013f
00000190: 5e60 dabe fea6 2fbf ef6f 12be c022 97bf
000001a0: 6fc2 afbe 614a 0bbf 1fc7 d73e cb3c 48bf
000001b0: 878e afbe ca81 2fbf 81cb 5f3f db91 6ebe
000001c0: 4b55 2d3f a30b 313e efb5 6d3f a2b2 c1bd
000001d0: 87c6 cf3e 71c0 96bd 5ac8 273f bcca 34be
000001e0: 845d f6be 95cb 993f f09d 0abf 3ba9 133f
000001f0: ca68 4fbf 0c96 5dbf dddb 6f3f aedb 10be
00000200: cd72 113f 5f7e 4b3e 1f3b 17bf e446 3e3f
00000210: f71e 57bf 56c7 393f 06eb 08bf 8b16 bfbe
00000220: 91de a0be c3af 293e 36dc c1bd 8703 8bbe
00000230: ed6d 97bc a0dd 89be 3ffb c4be 1f53 62bf
00000240: dc83 c13e e9d2 ad3e 5b23 c23c 2f85 1dbf
00000250: 20bb b8bd 7589 ca3e ae89 223f f6f7 4c3f
00000260: 2413 813d 4ffc 653f b3a7 c03f d693 793e
00000270: 8708 583f c874 4dbf 76d3 20bf 3361 253f
00000280: ca62 dfbd 9dfe 4a3e ac64 bab7 df9a 013f
00000290: 5079 af3f 5ff6 c23e cac4 f23e 34bd 8bbe
000002a0: b2a3 9c3e 25f4 433e fd21 4fbf 548b bebe
000002b0: 3526 323f 426b b73d b3b3 113f 8150 ccbb
000002c0: 0dd9 e13e 4fdf 9bbe bb2e 3bbf b6af 553e
000002d0: 68fd 743f ba31 81be 9881 253f f77c 393f
000002e0: a81c 5abf 2e74 9d3d bd39 d53e 5b03 c13e
000002f0: 8d3e 83bd b67e b73e bf79 1ebe 4321 0ebe
00000300: 7054 18bd cb2a 023f f3a7 53bd 09f5 4bbf
00000310: 2ada 433d e715 6cbf b0bb 2cbf d9c9 ff3e
00000320: 8598 63be a648 b4bf 3aa8 5a3f fea1 20be
00000330: 075f aebf 5900 03bf a328 e63e 8dd0 babe
00000340: 47d9 ab3e ff2d bc3e bddd 22bf 9c23 f539
00000350: 64c8 00be 6eee 26bf 6b19 0abf 3876 e0bc
00000360: 283e 7f3d ff59 18bf 6e5f c9bd 9454 8b3b
00000370: da29 ad3d 3c58 b7be 9a7e 263f a176 c3be
00000380: f76b a23e c1ef 9cbe e563 e5bc beff ebbe
00000390: f274 923e 325e 483f a9d0 b33e 8f16 12bf
000003a0: c08a 843e ce85 053f 6464 313e ad73 3e3f
000003b0: 58de 4ebe f4f8 9c3e 1318 d4be 0e59 25bf
000003c0: 90be 9c3f 3c81 e2be d337 46be 0da4 3a3f
000003d0: 5dca a9be 891f 583d c46d 7bbe 950d 4bbf
000003e0: 3991 05bf a75f b43e fa31 24bf 6c29 e93e
000003f0: f78f a53e f0fb 743f c735 903f 9300 c6bd
0.2122317 0.11631771 0.32577813 0.3667693 0.35398293 -0.47431764 -0.75795823 -0.6460375
-0.30211487 0.02285047 -0.34772626 0.032931406 0.33621734 0.26375797 0.08596944 0.1295493
0.122413315 0.3247082 -0.19710648 0.9970056 -0.6989215 -0.029816335 1.0245119 -1.224193
-0.2441869 0.33261782 -0.579363 -0.49356404 0.060711812 0.39024404 1.6881547 0.26798823
1.238623 -0.1420491 0.44932508 0.9389709 0.33148274 -1.0128505 0.31902856 0.36892265
0.38734785 -0.2593359 0.053147737 -0.57379854 0.7994928 0.3021795 0.12682138 -0.15859683
0.072601624 -0.12499749 0.019355549 0.46870238 0.25250012 -0.7520615 0.8517089 -0.2466973
-0.9012711 0.053976424 -0.7371162 -0.46708032 -0.2094681 0.18233635 0.11830736 0.011939771
0.2781484 -0.29911956 0.34733346 0.46375278 -0.086409725 -0.53719854 -0.15367378 0.21629669
-0.34511355 0.058914013 -0.0020830932 -0.7188542 -0.059323575 -0.83428234 -0.106275186 0.5506592
-0.80301136 0.011137991 0.31365204 0.2655877 -0.42274514 -0.51045734 -0.0010856108 -0.40520653
0.63450605 0.1300789 1.1398807 0.33225453 -0.04895828 1.1109431 0.18707268 -1.1211007
-0.49047077 0.14328258 -0.23761831 0.5051109 -0.42651647 -0.68614185 -0.14300512 -1.180748
-0.3432803 -0.5441037 0.42144105 -0.7821776 -0.34288427 -0.6855742 0.874199 -0.23297827
0.6770827 0.17289595 0.92855734 -0.094579 0.40581152 -0.07360924 0.6554009 -0.17655462
-0.48118222 1.2015253 -0.54147243 0.576801 -0.8101927 -0.8655708 0.9369486 -0.14146301
0.568158 0.19872425 -0.59074587 0.7432692 -0.84031624 0.7256979 -0.5348362 -0.37321886
-0.31419805 0.16570954 -0.0946583 -0.2715113 -0.018485034 -0.269269 -0.38472936 -0.8840808
0.37795913 0.33949974 0.0236985 -0.6153135 -0.09020066 0.39557996 0.6349133 0.8006586
0.06302479 0.8983812 1.5051178 0.24372801 0.8438801 -0.8025632 -0.62822664 0.6460144
-0.109075144 0.1982369 -2.2219807e-05 0.5062694 1.3708897 0.3807859 0.47415763 -0.27292788
0.3059364 0.19136102 -0.80911237 -0.37215674 0.6958955 0.08956005 0.56914824 -0.0062351828
0.4411091 -0.30443808 -0.7311818 0.2086781 0.9569917 -0.2523325 0.6465087 0.72456306
-0.85199976 0.07688175 0.41645613 0.37697873 -0.06408415 0.3583886 -0.1547613 -0.13879876
-0.0371899 0.50846547 -0.05167384 -0.7967077 0.04781548 -0.9222092 -0.6747389 0.49958685
-0.2222615 -1.408467 0.85412943 -0.15686795 -1.362275 -0.51172405 0.44952878 -0.36487237
0.33564207 0.36753842 -0.63619596 0.00046756573 -0.12576443 -0.65207565 -0.53945035 -0.027400121
0.062315136 -0.59512323 -0.09832655 0.004252026 0.08455248 -0.35809505 0.6503693 -0.38176444
0.31722996 -0.30651668 -0.028001735 -0.46093553 0.28604847 0.7826873 0.35120133 -0.5706567
0.25887108 0.52157295 0.17323452 0.7439526 -0.20202005 0.30658686 -0.41424617 -0.6458901
1.2245655 -0.44239223 -0.19357233 0.7290657 -0.33162203 0.05276445 -0.24553591 -0.793176
-0.5217472 0.35229227 -0.6413876 0.45539415 0.323364 0.95696926 1.1266412 -0.09668078

linear3.bias f4 [4]
00000000: 047a af3c f343 d7bd 9a91 773d cd73 ba3d
0.021420486 -0.10511007 0.06044159 0.091041185
